Project3_CollaborationAndCompetition/actor_1.pth (torch_old, 51737 bytes, 18 tensors)

fc1.weight f4 [128, 24]
0	0xbd9f73b6	-0.07785742
1	0x3da13c89	0.07872874
2	0x3ce6bf38	0.028167352
3	0xbcfbeeb2	-0.030753467
4	0xbdfb8300	-0.12280846
5	0xbce23712	-0.02761415
6	0x3d074e01	0.033033375
7	0xbdc525a4	-0.0962632
8	0xbd68721e	-0.056749456
9	0x3d521a9d	0.05129491
10	0x3d25afc3	0.040450823
11	0x3d0d0214	0.03442581
12	0xbda3d4ca	-0.07999571
13	0xbd9d0872	-0.076676264
14	0xbd867bef	-0.06566607
15	0x3dc0e06e	0.094178066
16	0xbaa732ad	-0.0012756191
17	0x3de5f139	0.1122765
18	0x3d929d0e	0.07158862
19	0xbdad44ab	-0.08460363
20	0xbe14b8c4	-0.14523607
21	0x3dfd6d85	0.12374405
22	0xbca41fef	-0.020034758
23	0xbdd82f13	-0.10555854
24	0x3dd437c5	0.103622
25	0x3cb8db99	0.02256565
26	0xbda60bc0	-0.0810771
27	0xbcac2da1	-0.021017851
28	0xbcf9d017	-0.030494733
29	0x3da51882	0.08061315
30	0x3d8f9dde	0.07012533
31	0x3a65c186	0.0008764494
32	0x3dfe6785	0.124220885
33	0x3d99f374	0.07517138
34	0xba45591b	-0.00075282314
35	0x3ce50c14	0.02795986
36	0xbdb9be51	-0.09069503
37	0xbe1da2d6	-0.15394148
38	0x3a8d4a8b	0.0010779662
39	0xbcd09846	-0.025463235
40	0x3d845ebc	0.06463382
41	0x3dfc63ce	0.12323724
42	0x3cfd2366	0.030900668
43	0x3d8394bc	0.06424853
44	0xbdf925d1	-0.12165416
45	0xbe517cad	-0.20457716
46	0xbb8063e9	-0.00391816
47	0x3cfbf349	0.030755656
48	0xbcc1ede2	-0.023673002
49	0xbda01483	-0.07816412
50	0xbc925d8c	-0.017866872
51	0x3d47de19	0.048795793
52	0x3dcaddd0	0.099055886
53	0xbcf22f29	-0.029563503
54	0x3d5a66c4	0.05332066
55	0x3c36a9b1	0.011148856
56	0xbba724b5	-0.0051008114
57	0xbc55a035	-0.013038685
58	0x3d638368	0.05554524
59	0x3d7c79e6	0.06163969
60	0x3c5d1189	0.01349295
61	0x3c33d6e0	0.010976523
62	0x3d887611	0.066631444
63	0x3de8e98c	0.113726705
64	0xbb7f0ea6	-0.0038918643
65	0xbcfd8ad9	-0.030949997
66	0x3a0c9296	0.0005362419
67	0x3dd86662	0.10566403
68	0x3bd489dc	0.0064861607
69	0xbe0c5a46	-0.13706312
70	0x3dcc44d1	0.09974063
71	0xbcdb792d	-0.02679118
72	0xbdb4d9b3	-0.08830585
73	0x3d8f0ba5	0.06984643
74	0xbd337e57	-0.04382166
75	0xbd6cf74c	-0.05785303
76	0x3dc47c22	0.09593989
77	0xbdabf291	-0.08395875
78	0x3d25a8dd	0.040444244
79	0x3c5b57ec	0.013387661
80	0x3d11d7dc	0.03560625
81	0x3e15629e	0.145884
82	0x3ce6d76e	0.028178897
83	0x3d465575	0.048421342
84	0x3d34fd8f	0.044187125
85	0x3d6a83cc	0.057254598
86	0xbd1dff10	-0.038573325
87	0xbdb24a3c	-0.08705565
88	0xbd9bc7fa	-0.07606502
89	0x3e2c5695	0.16829903
90	0x3d756c43	0.0599177
91	0x3c0ebf1c	0.008712556
92	0x3d81a8e4	0.063310415
93	0xbd78b78b	-0.060721915
94	0xbda57ad0	-0.08080065
95	0xbdf9df20	-0.12200761
96	0x3e1f6143	0.15564446
97	0xbbd9b97b	-0.0066444254
98	0x3b966178	0.004589256
99	0x3d2d0378	0.042239636
100	0xbdf3fe6f	-0.11913764
101	0xbd86ccfb	-0.06582066
102	0xb9a2709d	-0.0003098295
103	0x3d84e55c	0.06489059
104	0xbb909663	-0.0044124587
105	0xbd9099b6	-0.07060568
106	0x3d1bf41c	0.038074598
107	0xbd0b1e23	-0.033964287
108	0x3c1353b6	0.008992126
109	0xbd42cded	-0.047559667
110	0xbc9edd1e	-0.019392546
111	0x3d891dbc	0.066951245
112	0x3dfb74e4	0.122781545
113	0xbe145b2e	-0.14487907
114	0x3cda4010	0.026641876
115	0xbd4a0c5a	-0.049328186
116	0xbd864dee	-0.06557833
117	0xbd6809b7	-0.05664989
118	0xbc49770e	-0.012296451
119	0xbdef8669	-0.116955586
120	0x3dc6026c	0.09668431
121	0x3a2e5bfc	0.000665128
122	0x3bec4433	0.0072102784
123	0x3d8f4f79	0.0699758
124	0x3d5c2cfa	0.05375383
125	0xbd642f0f	-0.05570894
126	0x3d264b9d	0.040599454
127	0x3ccea86b	0.025226792
128	0x3c41fe53	0.011840421
129	0xbcff6002	-0.03117371
130	0xbd47cc1e	-0.048778646
131	0x3d50e168	0.050996214
132	0x3d9cc850	0.07655394
133	0x3e06ff4a	0.13183323
134	0x3d9e4636	0.077282354
135	0x3d644e8c	0.05573897
136	0x3dc7af8e	0.09750281
137	0x3df09725	0.117475785
138	0xbd08fa53	-0.033441853
139	0xbc1aa236	-0.009438088
140	0x3d46369f	0.048391934
141	0x3dc6f652	0.097149506
142	0x3d74240f	0.0596047
143	0x3dac5e5c	0.08416435
144	0xbd0564b0	-0.032566726
145	0x3dcb5acb	0.09929427
146	0x3c03838b	0.008026968
147	0x3dff17a8	0.12455684
148	0x3d5ce1b8	0.0539262
149	0x3df6e8d1	0.12056125
150	0xbd4f0dbb	-0.050550204
151	0x3e108edb	0.14116995
152	0xbcafe0a4	-0.021469422
153	0xbcef7b9e	-0.02923375
154	0xbcc9b798	-0.024623677
155	0x3dc454ea	0.095865086
156	0x3b724a7c	0.0036970666
157	0xbbbbb3c2	-0.005728216
158	0x3ab02def	0.0013441424
159	0x3de829ba	0.11336084
160	0x3cd25340	0.025674462
161	0x39ba739f	0.0003556283
162	0x3d6590dc	0.05604635
163	0x3d19f5a5	0.03758778
164	0x3daae653	0.08344712
165	0xbe0fcd63	-0.14043193
166	0xbd8b1d47	-0.067926936
167	0x3dbd885a	0.092545226
168	0xbd733225	-0.059373993
169	0xbce8bd42	-0.028410558
170	0xbd12239c	-0.03567849
171	0xbd59fb07	-0.053217914
172	0x3d98a63d	0.074535824
173	0xbcf90b45	-0.030400882
174	0xbca131bf	-0.019677041
175	0x3c8e23a2	0.017350975
176	0xbdc33066	-0.09530716
177	0xbe1d5259	-0.15363444
178	0x3cd8f2a8	0.026482895
179	0xbdb5132f	-0.088415496
180	0xbc7ae7c8	-0.01531405
181	0x3dd97ddd	0.1061971
182	0x3ce785cc	0.028262042
183	0x3d4068ec	0.04697506
184	0x3c37bb90	0.011214152
185	0xbcec3025	-0.02883155
186	0x3dbbb8c3	0.091661
187	0x3e09c6d5	0.13454755
188	0x3c8e9cfc	0.01740884
189	0xbbafae7b	-0.005361376
190	0x3de339b3	0.1109499
191	0x3e39e365	0.1815315
192	0x3df394e4	0.11893633
193	0x3d9d201d	0.07672141
194	0xbcaf0ab1	-0.021367403
195	0x3d120811	0.035652224
196	0x3dac54b9	0.08414597
197	0xbe09c2e2	-0.13453248
198	0x3cac667f	0.021044968
199	0xbdc389e7	-0.09547787
200	0x3e0f3895	0.13986428
201	0xbdb13064	-0.08651808
202	0x3d7d88b7	0.06189796
203	0xbdcf6aa4	-0.10127762
204	0x3d58c4e1	0.052922133
205	0xbdb2223c	-0.08697936
206	0xbd871c90	-0.06597245
207	0xbdd80023	-0.10546901
208	0xbd55b456	-0.052173935
209	0x3bece3b1	0.0072292914
210	0xbc3b8335	-0.011444856
211	0xbd993205	-0.074802436
212	0xbd790407	-0.060794856
213	0x3db2d21e	0.08731483
214	0x3cac0120	0.02099663
215	0xbe1d486a	-0.15359655
216	0x3d8f8b2b	0.07008966
217	0x3c70df9f	0.014701753
218	0x3c1fb780	0.00974834
219	0xbd90a884	-0.07063392
220	0xbdedd936	-0.11613695
221	0xbde77bb5	-0.11302892
222	0xbc77ddd5	-0.0151285725
223	0xbca052db	-0.019570759
224	0x3db5eb8a	0.08882816
225	0xbd5c1284	-0.053728595
226	0xbd5d41dd	-0.05401789
227	0x3d3a7179	0.045518372
228	0x3ccf94f1	0.025339575
229	0x3bd222db	0.0064128465
230	0x3d6bba81	0.05755091
231	0x3cf98e04	0.030463226
232	0xbd961704	-0.07328609
233	0xbd7c8bae	-0.061656646
234	0x3d74c524	0.05975832
235	0x3dbbcaab	0.09169515
236	0x3d7db499	0.06193981
237	0x3cccdc79	0.025007473
238	0xbd5c6e56	-0.053816162
239	0x3e010f27	0.12603436
240	0x3cc96db7	0.024588449
241	0x3e7c0762	0.24612191
242	0xbcb8a74d	-0.022540713
243	0xbd1dd7d5	-0.03853591
244	0x3ce4966b	0.027903756
245	0xbe46f83a	-0.19430628
246	0x3cbcd36f	0.023050038
247	0x3c27c2f5	0.0102393525
248	0xbd004b1b	-0.031321626
249	0x3d778f88	0.060439616
250	0xbc6b28a8	-0.014352955
251	0xbdc6d40a	-0.09708412
252	0xbda33a06	-0.079700515
253	0x3dbb4e32	0.09145774
254	0xbab10da1	-0.001350809
255	0xbd525a6e	-0.05135577

fc1.bias f4 [128]
0	0xbccbf5ae	-0.024897423
1	0x3d80a9f6	0.062824175
2	0xbe84010e	-0.25782055
3	0xbe6d3467	-0.23164521
4	0xbd664755	-0.05622037
5	0x3e3531cd	0.17694779
6	0x3e42db47	0.1902896
7	0xbda21196	-0.079135105
8	0x3d4d4f8d	0.050124694
9	0xbd09843a	-0.033573367
10	0xbdc69189	-0.096957274
11	0xbd83d34c	-0.06436786
12	0x3e12ae17	0.14324223
13	0x3e27e9b6	0.16397747
14	0x3e2a8e0b	0.16655748
15	0x3e356646	0.17714795
16	0x3e061cf5	0.13096984
17	0x3d0b1ef3	0.033965062
18	0x3b393fa4	0.0028266693
19	0xbde76ea0	-0.11300397
20	0xbe12138c	-0.14265269
21	0xbe0e3d14	-0.13890487
22	0x3bc88935	0.006119872
23	0x3e1d112f	0.15338586
24	0xbe2fac70	-0.17155623
25	0xbe2fd638	-0.17171562
26	0x3e2f4b5c	0.17118591
27	0x3e069b89	0.1314527
28	0xbe1754e3	-0.14778475
29	0xbe8a44ff	-0.27005765
30	0x3c0827d0	0.008310273
31	0xbe530ec5	-0.20611103
32	0x3e012e76	0.1261538
33	0xbdfb505a	-0.12271185
34	0x3d8de901	0.069292076
35	0x3cfb6ebf	0.030692456
36	0x3e0d60de	0.13806483
37	0xbdd2c41c	-0.10291311
38	0x3d09b111	0.03361613
39	0x3db3a605	0.087719
40	0x3d8de3d0	0.069282174
41	0xbd2d70fa	-0.04234407
42	0x3dde455d	0.10853074
43	0xbe48f7f3	-0.19625835
44	0x3d9c16d4	0.076215416
45	0xbd8d032d	-0.06885371
46	0x3d8564c4	0.0651336
47	0xbdde72d5	-0.10861746
48	0xbd59b297	-0.053148832
49	0xbda3c383	-0.07996275
50	0xbc737978	-0.014860503
51	0x3d9cfc25	0.0766528
52	0x3cfc265a	0.030780006
53	0x3d06ca44	0.03290774
54	0xbd7895b1	-0.06068963
55	0xbe126b19	-0.14298667
56	0x3a9d8a6a	0.00120194
57	0x3d700150	0.058595
58	0x3e459594	0.19295341
59	0x3e287f24	0.1645475
60	0xbe1f75ef	-0.15572332
61	0x3dea4127	0.11438208
62	0x3e05822d	0.1303794
63	0xbe22f359	-0.15913142
64	0xbe46147b	-0.1934375
65	0xbe0cc164	-0.13745648
66	0xbdae4f25	-0.08511189
67	0xbd3d44ee	-0.046208315
68	0xbe858764	-0.26079857
69	0x3ddf8a93	0.10915103
70	0xbda0d875	-0.07853786
71	0x3d2cba9d	0.042170156
72	0x3cb42e17	0.021994634
73	0xbe592fdf	-0.21209668
74	0x3d4f7205	0.050645847
75	0x3e324afb	0.17411415
76	0x3e66ee67	0.22551881
77	0xbd88a22a	-0.06671555
78	0x3de9e416	0.11420457
79	0xbdf1744b	-0.11789759
80	0x3d83c73b	0.064344846
81	0xbd863b12	-0.065542355
82	0xbca1e864	-0.019764133
83	0xbc85d53c	-0.01633703
84	0x3d4389a1	0.047738675
85	0x3d6f1fd5	0.058379967
86	0xbdb978df	-0.090562575
87	0xbe492371	-0.19642426
88	0x3dad225c	0.08453819
89	0xbe0df7ba	-0.13864031
90	0xbd4e0cba	-0.050305106
91	0xbdb4f1ff	-0.088352196
92	0xbdaa0ecd	-0.08303604
93	0xbe9536bd	-0.29143324
94	0xbdfd3d13	-0.123651646
95	0x3e4ac387	0.1980115
96	0x3e6f49c9	0.2336799
97	0x3e2f41b4	0.17114908
98	0xbe1dd6a4	-0.1541391
99	0xbe43af3a	-0.19109812
100	0xbe25818f	-0.16162704
101	0xbdb687a2	-0.08912589
102	0xbe651878	-0.22372615
103	0xbcecc546	-0.028902661
104	0xbe022405	-0.12709053
105	0x3e2efa8c	0.17087764
106	0xbd729b7f	-0.059230324
107	0xbd6462a1	-0.055758122
108	0xbd788c2d	-0.060680557
109	0x3d1e3021	0.038620118
110	0xbddd8d49	-0.10817964
111	0x3c65eaa9	0.014032998
112	0x3e1f6341	0.15565206
113	0x3e46e58d	0.19423504
114	0x3e80ac72	0.25131565
115	0xbe2778d7	-0.1635469
116	0xbd804a15	-0.0626413
117	0xbe3caa29	-0.18424286
118	0xbe15fc6f	-0.14647077
119	0x3c8cf39a	0.017206002
120	0x3dda9c11	0.106742986
121	0x3dca5ad9	0.09880609
122	0x3e0440eb	0.12915389
123	0x3cd0eb5a	0.02550285
124	0xbe167bb0	-0.1469562
125	0x3d8de84c	0.06929073
126	0xbb0c9321	-0.002145
127	0xbd371e0f	-0.0447064

bn1.weight f4 [128]
0	0x3f3451df	0.70437425
1	0x3e5dec79	0.21672238
2	0x3f03bda9	0.51461273
3	0x3f5bfc15	0.8593152
4	0x3eb172e8	0.3465798
5	0x3f245d5e	0.6420497
6	0x3ed0258c	0.40653646
7	0x3f52eaa9	0.82389313
8	0x3edd510a	0.4322589
9	0x3f41ae47	0.7565655
10	0x3ec672e1	0.3875952
11	0x3d5f9443	0.054584753
12	0x3ed0d894	0.40790236
13	0x3f41d748	0.7571912
14	0x3edded43	0.4334508
15	0x3ed5aee6	0.41735
16	0x3f4d19a8	0.80117273
17	0x3e1ee1d5	0.15515836
18	0x3e981070	0.2970004
19	0x3f1a8956	0.6036581
20	0x3f6d1c40	0.9262123
21	0x3f222825	0.63342506
22	0x3e90f993	0.2831541
23	0x3f2b2599	0.66854244
24	0x3f4bce13	0.7961132
25	0x3e888a95	0.2666823
26	0x3f73ad64	0.9518645
27	0x3f06d76a	0.52672446
28	0x3e9133b3	0.28359756
29	0x3dbcd814	0.09220901
30	0x3f27d694	0.65561795
31	0x3e8b3b5a	0.2719372
32	0x3f0c53dd	0.54815465
33	0x3e3b2074	0.18274099
34	0x3f1c103d	0.6096228
35	0x3e7c9af8	0.24668491
36	0x3f4070c7	0.75172085
37	0x3f2d9e99	0.67820126
38	0x3f2d0190	0.6758051
39	0x3f60a90c	0.87757945
40	0x3f47e98d	0.78090745
41	0x3f1019eb	0.5628955
42	0x3f5780e1	0.8418103
43	0x3e47d09e	0.19513175
44	0x3f368b04	0.7130587
45	0x3f46a04b	0.7758834
46	0x3e9867a7	0.2976658
47	0x3ea42261	0.3205748
48	0x3f37b1be	0.7175559
49	0x3f643183	0.8913805
50	0x3e450c81	0.19243051
51	0x3f16bb1c	0.58879256
52	0x3e026b0e	0.1273615
53	0x3f23f090	0.64038944
54	0x3e24aefb	0.16082375
55	0x3eb18889	0.3467448
56	0x3f5744e5	0.840895
57	0x3f69629f	0.9116611
58	0x3f44e25a	0.76907885
59	0x3ee2a965	0.44269863
60	0x3de17f3e	0.11010598
61	0x3f42f2b5	0.7615159
62	0x3f4ce687	0.80039257
63	0x3f57fe92	0.8437282
64	0x3f37092f	0.7149839
65	0x3f0f8d2d	0.5607479
66	0x3f343d98	0.70406485
67	0x3f25973f	0.6468391
68	0x3e724ae5	0.23661382
69	0x3f3ea0c1	0.7446404
70	0x3ea4f7b3	0.3222023
71	0x3f4f13a2	0.8088933
72	0x3f05a8be	0.52210605
73	0x3edb1120	0.42786503
74	0x3f23d893	0.6400234
75	0x3ee015f5	0.43766752
76	0x3f307127	0.68922657
77	0x3e70cb20	0.23514986
78	0x3dc16047	0.094421916
79	0x3f20721a	0.62674105
80	0x3eda863d	0.4268054
81	0x3eab4411	0.33450368
82	0x3e13c7ec	0.14431733
83	0x3f030142	0.51173794
84	0x3e9980a4	0.29980958
85	0x3f37318c	0.7155998
86	0x3e48f4e9	0.19624676
87	0x3ec408f5	0.38288084
88	0x3ed899e1	0.423049
89	0x3f0fc19e	0.5615481
90	0x3e21ea1c	0.15811962
91	0x3f27d2ee	0.6555623
92	0x3e270f93	0.16314535
93	0x3eafbf8f	0.34325835
94	0x3f2b0478	0.66803694
95	0x3eccf5c4	0.40031254
96	0x3ef41180	0.476696
97	0x3e3d7819	0.18502845
98	0x3e807881	0.25091937
99	0x3f4e7212	0.8064281
100	0x3f38ab19	0.72136074
101	0x3f53cf09	0.82737786
102	0x3f2df3f9	0.679504
103	0x3f6784b3	0.9043686
104	0x3f481599	0.78157955
105	0x3ef471a4	0.4774295
106	0x3ecfcfe1	0.40588287
107	0x3e90bf64	0.2827102
108	0x3f4a52fb	0.7903287
109	0x3f085a64	0.53262925
110	0x3ea1d898	0.3161056
111	0x3f2fb44d	0.6863449
112	0x3f1ebbd1	0.62005335
113	0x3eeae9db	0.45881543
114	0x3ede381c	0.43402183
115	0x3e38208b	0.17981164
116	0x3f62ddeb	0.8861987
117	0x3e483943	0.19553094
118	0x3e9f4d25	0.31113544
119	0x3f0d7ea4	0.55271363
120	0x3e9c49ce	0.30525059
121	0x3f3d74b0	0.74006176
122	0x3ed2c487	0.41165563
123	0x3e8e88eb	0.27838835
124	0x3efe3efb	0.49657425
125	0x3edae157	0.42750046
126	0x3ed1a145	0.4094335
127	0x3ebf5a61	0.3737364

bn1.bias f4 [128]
0	0xbd3d39a3	-0.046197545
1	0xbd9e0b71	-0.07717026
2	0x3d410f74	0.047133878
3	0x3d63269f	0.055456754
4	0xbe1455f1	-0.14485909
5	0x3c15b968	0.009138443
6	0x3dbaa625	0.09113721
7	0xbc4e5fd9	-0.012596094
8	0xbdca3d5e	-0.09874986
9	0x3dfc0309	0.123052664
10	0xbd4174fd	-0.04723071
11	0xbe46b691	-0.19405581
12	0x3d07eb95	0.033183653
13	0xba6487bb	-0.0008717735
14	0xbd4a593a	-0.0494015
15	0x3e177ead	0.14794417
16	0xbc94e24a	-0.01817431
17	0x3e2547aa	0.16140619
18	0x3e18f552	0.14937332
19	0x3d79293f	0.06083035
20	0xbd3f048b	-0.046635192
21	0xbd84c4e3	-0.06482866
22	0x3c9a38e1	0.01882595
23	0xbd2f7e9d	-0.042845357
24	0x3dd8c767	0.10584908
25	0xbd93ed18	-0.072229564
26	0x3d1abd9c	0.03777848
27	0xbcec06a2	-0.028811757
28	0xbdccb096	-0.099946186
29	0x3e88c01b	0.26709065
30	0x3dcbde48	0.09954506
31	0xbd4e2335	-0.050326545
32	0x3e1ac9a2	0.1511598
33	0x3bb90c6b	0.0056472323
34	0x3dbeb040	0.09310961
35	0xbd32557f	-0.043538567
36	0xbcdb9db9	-0.026808606
37	0x3e15c759	0.14626826
38	0x3e0bcd0f	0.13652442
39	0x3c7283e6	0.014801955
40	0xba0f3ade	-0.0005463789
41	0x3d926475	0.07148067
42	0xbd556f38	-0.05210802
43	0x3e24ba12	0.16086605
44	0xbe35864f	-0.17727016
45	0xbd0e0e79	-0.03468177
46	0x3d2bfde6	0.041990183
47	0x3d0377e8	0.032096773
48	0xbc9ea289	-0.019364612
49	0x3dd23cdc	0.10265514
50	0x3d8bda40	0.06828737
51	0x3e2ed740	0.17074299
52	0x3d39ef63	0.045394313
53	0x3e2bf4ef	0.16792654
54	0xbdf8ca5f	-0.12147974
55	0xbb1d8021	-0.002403267
56	0x3de2752b	0.11057504
57	0x3e103819	0.140839
58	0xbd6b4edb	-0.05744825
59	0x3e29e934	0.16592866
60	0xbe407597	-0.18794857
61	0x3daeffa3	0.085448526
62	0x3c8925a3	0.01674158
63	0x3d9900d1	0.07470859
64	0xbde1c57d	-0.11023996
65	0xbc5462c2	-0.012962999
66	0x3e251a01	0.16123201
67	0xbda7d6a9	-0.0819524
68	0x3d0df31a	0.034655668
69	0x3d80860d	0.06275568
70	0x3daf3c2a	0.08556397
71	0x3d85a7fe	0.065261826
72	0x3ced2cb7	0.028951986
73	0x3ca2e23d	0.01988327
74	0xbd8fb888	-0.070176184
75	0xbd8c0010	-0.068359494
76	0xbe4ed6d1	-0.20199133
77	0xbbec0ac0	-0.00720343
78	0xbe901ef1	-0.28148606
79	0x3e08b646	0.13350782
80	0xbdaf0de4	-0.08547571
81	0xbc8bb4da	-0.01705401
82	0x3dcdb784	0.100447685
83	0x3e230dba	0.15923205
84	0xbdd5a3ed	-0.10431657
85	0x3e1e3460	0.15449667
86	0xbe6b09a4	-0.22952896
87	0xbc1cce48	-0.009570666
88	0xbddf9b12	-0.10918249
89	0x3e368f29	0.17828049
90	0xbe0a5c21	-0.13511707
91	0x3d36107f	0.044449326
92	0x3c80a7eb	0.01570507
93	0x3e0e5fd4	0.13903743
94	0x3db39ade	0.08769773
95	0x3d7b0a5d	0.06128918
96	0xbd3cd5df	-0.0461024
97	0x3e1cb670	0.1530397
98	0x3e0989ac	0.13431424
99	0x3e02f62c	0.1278922
100	0x3e080397	0.1328262
101	0x3d496397	0.049167242
102	0xbc39cc00	-0.011340141
103	0x3e05c6a3	0.13064055
104	0xbde65e45	-0.11248449
105	0x3d995972	0.074877635
106	0x3d98a0b0	0.07452524
107	0x3e480d28	0.19536269
108	0x3da86cad	0.08223853
109	0x3dc37c7a	0.095452264
110	0xbc965c06	-0.018354427
111	0x3d34c02c	0.044128582
112	0x3d9d73a8	0.07688075
113	0xbcecefbc	-0.028922908
114	0x3e276f0c	0.16350955
115	0xbdbd37ce	-0.092391595
116	0x3dbbae25	0.09164075
117	0xbdde7987	-0.10863023
118	0x3e3490e2	0.17633393
119	0x3d9abd46	0.07555632
120	0x3e90d986	0.28290957
121	0xbe17ce4d	-0.14824791
122	0xbd70c310	-0.058779776
123	0xbda7fa8e	-0.082020864
124	0x3dfb9a47	0.122852854
125	0x3c2700bb	0.010193045
126	0x3d52d849	0.051475797
127	0xbdc949de	-0.09828542

bn1.running_mean f4 [128]
0	0x3fc9960f	1.5748919
1	0x3d188b9e	0.037242524
2	0x3faec1f4	1.365294
3	0x3f3fbd95	0.74898654
4	0x3d43245a	0.04764209
5	0x3f0286e1	0.5098706
6	0x3f5f9021	0.873293
7	0x402ada6a	2.669581
8	0x3e156c44	0.14592081
9	0x3df8ef26	0.12154989
10	0x3eb364e3	0.35037908
11	0x3f855284	1.0415807
12	0x3daa329e	0.08310436
13	0x3f024348	0.50883913
14	0x3f8ede9e	1.1161687
15	0x3f8b6489	1.0890056
16	0x3ec5b5d3	0.38615283
17	0x3e7d7746	0.2475253
18	0x3f868e73	1.0512222
19	0x3e8d7e8d	0.27635613
20	0x3f47ad46	0.7799877
21	0x3f9ae696	1.2101619
22	0x3f248d2e	0.64277923
23	0x3fb45126	1.4087265
24	0x3ea034dd	0.3129033
25	0x3da7616e	0.0817288
26	0x3f0d0d8f	0.55098814
27	0x3d3ea84e	0.046547227
28	0x3f81baea	1.0135167
29	0x3f152f17	0.5827498
30	0x3fbc314a	1.4702542
31	0x3e80425c	0.25050628
32	0x3f258e2a	0.6467005
33	0x3f082d4e	0.5319413
34	0x3f4bc150	0.79591846
35	0x3e182238	0.14856803
36	0x3f3b8f16	0.73265207
37	0x3e95ddcd	0.29270783
38	0x3fd35812	1.6511252
39	0x3e8b2dca	0.27183372
40	0x3fe30384	1.7735448
41	0x3dd33d1a	0.103143886
42	0x3fc584da	1.5431168
43	0x3df7af19	0.12093944
44	0x3f0c1030	0.547122
45	0x3f430aac	0.7618816
46	0x3e8db216	0.2767493
47	0x3e30549a	0.17219773
48	0x3fbcdcea	1.4754918
49	0x3ec64150	0.38721704
50	0x3ed154c0	0.40884972
51	0x3e1179f1	0.14206673
52	0x3f928ab8	1.1448584
53	0x3fb273f2	1.3941634
54	0x3e0c52e9	0.13703503
55	0x3f069d69	0.5258394
56	0x3ec9dffa	0.39428693
57	0x3f175691	0.59116465
58	0x3f9ce7dc	1.2258258
59	0x4003b52f	2.0579336
60	0x3f2a34d7	0.6648688
61	0x3f5eb656	0.8699697
62	0x3f8f042f	1.1173152
63	0x3f55ae5f	0.83469194
64	0x3fa0ac85	1.2552649
65	0x3efd8f42	0.4952336
66	0x3fb5af55	1.4194132
67	0x3efdaa31	0.49543908
68	0x3db9770f	0.09055912
69	0x3e11d858	0.14242685
70	0x3f052cc2	0.5202142
71	0x3ee65d14	0.44992888
72	0x3dd099c5	0.10185579
73	0x3e2626a1	0.16225673
74	0x3f6ee629	0.93319947
75	0x3f34f735	0.7068971
76	0x3f94aed8	1.1615858
77	0x3f166204	0.5874331
78	0x3f6f5134	0.9348328
79	0x3ea5eb8e	0.32406276
80	0x3db29b4e	0.08721028
81	0x3f637275	0.8884652
82	0x4001179f	2.0170667
83	0x3fd1ef9e	1.640125
84	0x3f245d34	0.64204717
85	0x3f776b6d	0.96648294
86	0x3d823bac	0.06359038
87	0x3e4f5f40	0.20251179
88	0x3eccf889	0.40033367
89	0x400dc7ab	2.2153118
90	0x3e541d1a	0.20714226
91	0x3f6a42be	0.9150809
92	0x3d87b93f	0.0662713
93	0x3ea536a0	0.32268238
94	0x3f60e8eb	0.87855405
95	0x40403bdb	3.0036533
96	0x4003ab6c	2.0573378
97	0x3ee70c97	0.45126793
98	0x3e23e88c	0.16006678
99	0x3f12b561	0.5730801
100	0x3f387a05	0.7206119
101	0x3ee20e63	0.441516
102	0x3e436a57	0.19083534
103	0x3ebcaebe	0.36852068
104	0x3f9f2c55	1.2435404
105	0x3ebcfabc	0.36910045
106	0x3ca22d59	0.019797014
107	0x3ce92d9e	0.028464135
108	0x3e8e88da	0.27838784
109	0x3fe7bf01	1.8105165
110	0x3f72f8d9	0.9491096
111	0x3eaf3df1	0.34226945
112	0x3ee6f256	0.45106763
113	0x3fbfb228	1.4976244
114	0x3e2b532f	0.16730951
115	0x3f2f995a	0.6859337
116	0x40024446	2.035417
117	0x3d3702ac	0.044680282
118	0x3d526ba0	0.05137217
119	0x3ec38acd	0.38191834
120	0x3dd9a346	0.10626845
121	0x400b0810	2.172367
122	0x3fdb920f	1.7153949
123	0x3db1542f	0.08658635
124	0x3ecd4329	0.40090302
125	0x40032ad9	2.0494902
126	0x3f0157e8	0.5052476
127	0x3f27c664	0.65537095

bn1.running_var f4 [128]
0	0x40422cdc	3.033988
1	0x3d49441a	0.049137212
2	0x4086a680	4.2078247
3	0x3f5ba00a	0.85791075
4	0x3d5dae33	0.054121207
5	0x3f871226	1.0552413
6	0x3fda7167	1.7065858
7	0x4104a9a9	8.291421
8	0x3e612b63	0.21989207
9	0x3df93558	0.12168378
10	0x3e9480c8	0.29004502
11	0x40203e6f	2.5038106
12	0x3dbddcc2	0.09270622
13	0x3f07478d	0.5284355
14	0x3fb14ccc	1.3851562
15	0x3fd78679	1.6837913
16	0x3ec35cbc	0.38156688
17	0x3ea2975f	0.31756112
18	0x3f8b6e6e	1.0893075
19	0x3e926f46	0.2860052
20	0x3f871568	1.0553408
21	0x3f4258ba	0.75916636
22	0x3fd26f13	1.6440147
23	0x3f75d247	0.9602398
24	0x3dfacf73	0.12246599
25	0x3d2b2cdd	0.04179083
26	0x3f07ea70	0.530921
27	0x3d7168ad	0.058937717
28	0x3fe8b442	1.818001
29	0x3f673a99	0.9032379
30	0x3f9a030e	1.2032182
31	0x3e9b4088	0.3032267
32	0x3f5c80c8	0.86134005
33	0x3f79890b	0.97474736
34	0x3f67b49a	0.9050995
35	0x3dfafbe7	0.12255078
36	0x3fb23c23	1.3924602
37	0x3e7723a1	0.24134685
38	0x400e8790	2.227024
39	0x3daa136e	0.08304487
40	0x40a2f163	5.091966
41	0x3df2aa68	0.11848909
42	0x3fb2ee79	1.3979026
43	0x3e190a0c	0.14945239
44	0x3f42b1f5	0.7605279
45	0x3f6b91e2	0.92019475
46	0x3ef41fab	0.4768041
47	0x3e41acb5	0.18913539
48	0x401af41b	2.421149
49	0x3dce2c18	0.10067004
50	0x3edeeb80	0.43539047
51	0x3ddb2924	0.10701206
52	0x40560e4f	3.3446233
53	0x401b35c2	2.425156
54	0x3df03b7a	0.11730094
55	0x3f24a914	0.6432049
56	0x3ecc570f	0.3991017
57	0x3efd13a2	0.4942904
58	0x3fa26899	1.2688171
59	0x4086ffe6	4.2187376
60	0x3f484070	0.78223324
61	0x3f4529b1	0.7701674
62	0x401886bb	2.3832233
63	0x3fd134d0	1.6344242
64	0x4020bf62	2.511681
65	0x3ef964f2	0.48709828
66	0x3fdaf393	1.7105583
67	0x3f15fd67	0.58589786
68	0x3daa77c0	0.08323622
69	0x3e05cd59	0.13066615
70	0x3f1a5a60	0.6029415
71	0x3ebe1def	0.37132213
72	0x3d899fc3	0.06719925
73	0x3e52a3e8	0.20570338
74	0x3fe6ce5d	1.8031727
75	0x3f8081bc	1.0039592
76	0x3fa722f3	1.3057541
77	0x3f1e0e59	0.6174064
78	0x3fb9a4dd	1.4503437
79	0x3e8b3576	0.27189225
80	0x3d9d95e2	0.076946035
81	0x3f88d1fb	1.0689081
82	0x3fc78730	1.5588131
83	0x405c3518	3.4407406
84	0x3f405172	0.75124276
85	0x3fe47383	1.7847751
86	0x3cf6d991	0.03013304
87	0x3e74a291	0.23890139
88	0x3e8687b0	0.26275396
89	0x4027422b	2.6134136
90	0x3e57fbd5	0.2109216
91	0x4040b56c	3.011073
92	0x3d6ad17f	0.057328697
93	0x3e9daf1f	0.3079767
94	0x3f97cfdd	1.186031
95	0x408492a6	4.1429014
96	0x40557954	3.3355303
97	0x3eb65763	0.35613546
98	0x3e12a8a7	0.14322148
99	0x3f283263	0.65701884
100	0x3e9d1aa9	0.30684403
101	0x3eb4655c	0.3523358
102	0x3e45f2f2	0.19330958
103	0x3e762766	0.24038467
104	0x3ed66b63	0.41878805
105	0x3eb60121	0.35547736
106	0x3c6da6c4	0.014505092
107	0x3c89a841	0.016803863
108	0x3d8c40e2	0.06848313
109	0x3fd0f17f	1.6323699
110	0x3fc1f56e	1.5153024
111	0x3eeb2adc	0.45931137
112	0x3eb5cbe2	0.35507113
113	0x3f9ed0d6	1.2407482
114	0x3e3c2339	0.18372811
115	0x402f768f	2.7416112
116	0x3f561e9f	0.83640474
117	0x3d03651d	0.03207885
118	0x3cdbac8e	0.026815679
119	0x3eda6a71	0.42659333
120	0x3db3ec14	0.08785263
121	0x40903448	4.506382
122	0x3ff83cf9	1.9393607
123	0x3d830a52	0.06398453
124	0x3f3a9f04	0.7289889
125	0x3fae14b3	1.3600067
126	0x3ec38344	0.38186085
127	0x3f6a47bc	0.9151571

fc2.weight f4 [64, 128]
0	0xbd0b2b29	-0.033976708
1	0xbdce68b9	-0.10078568
2	0x3dacf1ca	0.08444555
3	0x3daa2a63	0.08308866
4	0xbcdf457c	-0.027254812
5	0xbd911467	-0.070839696
6	0x39b0c5ce	0.00033716712
7	0x3d897260	0.067112684
8	0x3d86902e	0.06570469
9	0xbd094bf0	-0.033519685
10	0xbdfbe488	-0.12299448
11	0xbd6411c2	-0.055680998
12	0x3d6a57c7	0.057212617
13	0x3cbc2020	0.022964537
14	0xbd8cc631	-0.068737395
15	0x3d05624e	0.032564454
16	0x3d2b100b	0.041763347
17	0x3d169c45	0.036770124
18	0x3d5144a6	0.05109086
19	0x3c6183f0	0.0137643665
20	0xbdae91c2	-0.08523895
21	0x3d996652	0.07490219
22	0xbd44c4f9	-0.04803941
23	0x3c0a8f45	0.00845701
24	0xbdb679c3	-0.08909943
25	0xbdce8f27	-0.10085898
26	0xbd49b6c1	-0.049246553
27	0xbd856d7e	-0.065150246
28	0xbd27f366	-0.041003607
29	0x3de730c1	0.11288596
30	0xbd396f03	-0.045271885
31	0xbdef4b09	-0.11684234
32	0x3dbe9b8b	0.09307011
33	0x3d76114c	0.06007509
34	0xbd48509f	-0.04890501
35	0x3de5a97e	0.11213969
36	0xbdbe978a	-0.093062475
37	0x3d29fc9b	0.04150067
38	0x3e1923ea	0.14955106
39	0x3d19c6b6	0.03754302
40	0x3dc06610	0.09394467
41	0x3d994607	0.0748406
42	0x3d842196	0.064517185
43	0xbe4d05df	-0.20021771
44	0xbdda0820	-0.10646081
45	0x3cfe8e44	0.031073697
46	0xbdd9f1ae	-0.106418
47	0xbd4f0717	-0.05054387
48	0xbd13f3c0	-0.03612113
49	0xbdac80a5	-0.084229745
50	0x3e03667c	0.12832063
51	0xbc4d111d	-0.012516287
52	0xbc4593e1	-0.012059183
53	0x3d7998f6	0.06093689
54	0xbdfdcc6e	-0.123925075
55	0xbd8e64f2	-0.069528475
56	0x3c6f8383	0.014618757
57	0x3cf87d19	0.030333089
58	0xbd8145c3	-0.06312134
59	0x3a7d63c2	0.0009666049
60	0xbb4f9af4	-0.0031678053
61	0xbc3418a4	-0.010992203
62	0xbc8107d3	-0.015750801
63	0x3dea1da6	0.11431436
64	0xbd858252	-0.06518997
65	0x3ca640bd	0.020294541
66	0xbc9083e1	-0.01764101
67	0x3df6ce05	0.12051014
68	0xbd806df5	-0.06270973
69	0xbc44b1cf	-0.0120052835
70	0xbd4c8007	-0.049926784
71	0xbe539778	-0.2066325
72	0xbe23e30f	-0.16004585
73	0xbdf65e9b	-0.12029763
74	0x3781c61e	1.5470254e-05
75	0x3d9d2aad	0.076741554
76	0x3d2b5100	0.041825294
77	0x3d9a2e7a	0.07528396
78	0xbc70e381	-0.014702679
79	0xbc7dd459	-0.015492522
80	0xbc885d08	-0.016645923
81	0xbdd9d4d6	-0.10636298
82	0x3d41ad7f	0.0472846
83	0x3d255568	0.040364653
84	0xbe424c12	-0.18974331
85	0xbce0dad1	-0.02744809
86	0x3c93fa60	0.018063724
87	0xbd8e3afb	-0.069448434
88	0x3baa8a9c	0.005204512
89	0x3e03d73a	0.12875071
90	0xbd371de8	-0.044706255
91	0xbd752c2c	-0.05985658
92	0xbe0400da	-0.1289095
93	0x3db18c40	0.08669329
94	0x3d5612f3	0.052264165
95	0xbde5af4e	-0.11215077
96	0x3d695511	0.05696589
97	0x3ceed45d	0.029153997
98	0xbd302808	-0.043006927
99	0x3db31661	0.08744503
100	0xbdb667ac	-0.089064926
101	0xbd67bcd8	-0.05657658
102	0x3dcf790d	0.101305105
103	0xbd5929c7	-0.053018358
104	0xbd6857ed	-0.056724478
105	0x3d20293b	0.03910182
106	0x3e65f9a9	0.22458519
107	0x3dd96d0c	0.10616502
108	0x3e0c58e7	0.13705789
109	0xbd8b4782	-0.068007484
110	0xbd27da1f	-0.0409795
111	0xbd83889a	-0.06422539
112	0xbda97634	-0.082744986
113	0x3db7603d	0.08953903
114	0xbdae0cb8	-0.0849852
115	0xbce6be06	-0.028166782
116	0xbdd8faf8	-0.105947435
117	0xbd71faab	-0.059076946
118	0x3dc8a07b	0.09796234
119	0xbd24693e	-0.04013943
120	0xbc97b74d	-0.018520022
121	0xbe007b5c	-0.12547058
122	0x3d3104bb	0.043217402
123	0xbe08c03f	-0.13354586
124	0xbd86cb3c	-0.06581733
125	0xbdd67ded	-0.10473237
126	0x3d0a344d	0.033741284
127	0xbdeb37a5	-0.11485223
128	0x3d6582a9	0.05603281
129	0xbaf07184	-0.0018344377
130	0xbd277a47	-0.040888097
131	0x3d65694d	0.056008626
132	0xbd9999f8	-0.0750007
133	0xbe151db6	-0.14562115
134	0x3db3170a	0.08744629
135	0x3cdf83c4	0.02728451
136	0xbe0d652f	-0.1380813
137	0xbda732b7	-0.0816397
138	0x3c7160bd	0.014732537
139	0xbd496367	-0.049167063
140	0xbac94b3c	-0.0015357505
141	0x3db3e017	0.08782976
142	0x3d4a1326	0.049334668
143	0xbbeb533f	-0.0071815546
144	0xbc4b6b56	-0.012415728
145	0xbdcde8ae	-0.10054146
146	0xbd87ba5a	-0.066273406
147	0x3dc082f9	0.09399981
148	0xbe0a7411	-0.13520838
149	0xbc28b61a	-0.010297323
150	0xbdaa1532	-0.08304824
151	0x3d36dbb6	0.044643126
152	0x3d82b449	0.06382043
153	0x3e354556	0.17702231
154	0x3d2acf14	0.04170139
155	0xbe2a4502	-0.16627887
156	0x3cec17c7	0.028819932
157	0xbc49db96	-0.01232042
158	0x3d8fa81d	0.07014487
159	0x3e5840e8	0.2111851
160	0xbd43a054	-0.047760323
161	0x3df00cbd	0.1172118
162	0xbd007960	-0.031365752
163	0x3dfff334	0.12497559
164	0xbe0aeedd	-0.13567682
165	0xbcb14085	-0.02163721
166	0xbdffe589	-0.12494952
167	0xbc5d32c5	-0.013500874
168	0xbd13206c	-0.03591959
169	0xbd7fb769	-0.062430773
170	0x3e03b7ff	0.12863158
171	0xbca3e2ab	-0.020005545
172	0xbd4ab895	-0.049492437
173	0x3d25ead5	0.040507156
174	0xbdda129a	-0.10648079
175	0xbd9d0ac2	-0.076680675
176	0xbc6b8820	-0.014375716
177	0xbbecadec	-0.0072228815
178	0x3d5ac098	0.053406328
179	0x3d8d9ecd	0.069150545
180	0xbd4877bc	-0.048942313
181	0xbd109efc	-0.03530787
182	0xbd9ae8ac	-0.0756391
183	0xbd074036	-0.03302022
184	0xbd5c9605	-0.053854007
185	0xbe09b9de	-0.13449809
186	0xbced5d8f	-0.028975276
187	0xbdd537e8	-0.10411054
188	0xbe2af6f7	-0.16695772
189	0xbd8be8bd	-0.06831501
190	0xbc9f74e7	-0.019464923
191	0xba067896	-0.0005129663
192	0xbd81da9b	-0.06340524
193	0xbbd608c2	-0.0065318057
194	0x3d874d2f	0.066065185
195	0x3b58c8c2	0.0033078645
196	0x3dc21187	0.09475999
197	0x3cc96629	0.024584847
198	0x3cfb6c0d	0.030691171
199	0xbe33d903	-0.17563252
200	0x3d942507	0.07233625
201	0x3c3367c5	0.010950034
202	0xbd26da3c	-0.04073547
203	0xbd128188	-0.035768062
204	0xbe07a9e3	-0.132484
205	0x3d871ff0	0.065978885
206	0x3ddc375a	0.10752745
207	0xbe15fe52	-0.14647797
208	0x3d86cb09	0.06581695
209	0x3e0d70c8	0.13812554
210	0x3de60ebf	0.11233281
211	0xbd31af72	-0.04338021
212	0x3d8424ac	0.06452307
213	0xbd60e16a	-0.05490247
214	0xbe0945b3	-0.13405494
215	0x3d428dd4	0.04749854
216	0x3dcdc0f6	0.1004657
217	0xbc39d843	-0.011343065
218	0x3de5bad2	0.11217274
219	0x3d01a4e8	0.031651407
220	0x3d4e1f68	0.05032292
221	0xbe042b43	-0.12907128
222	0x3c08bcd6	0.008345803
223	0xbe0b5828	-0.13607848
224	0x3e0c2217	0.13684879
225	0xbc8ffd63	-0.017576879
226	0x3dd0d930	0.10197675
227	0x3ccdfd7e	0.025145289
228	0xbd81eb0c	-0.0634366
229	0x3ddc8d8a	0.10769184
230	0x3c57fee6	0.013183331
231	0xbdcd36ec	-0.10020241
232	0x3bd682ea	0.006546368
233	0xbbaac330	-0.0052112564
234	0x3e2705fb	0.16310875
235	0x3deaf4df	0.11472487
236	0xbd806efb	-0.06271168
237	0x3d01ff49	0.0317376
238	0x3d33d071	0.043899957
239	0x3e092288	0.13392079
240	0xbb8af00f	-0.004240043
241	0x3c85f7ca	0.016353507
242	0x3d063d4b	0.032773297
243	0xbdba5cc3	-0.09099724
244	0x3d64c3e1	0.055850867
245	0x3d88a548	0.0667215
246	0x3db5f058	0.088837326
247	0xbdb88764	-0.09010199
248	0xbd808693	-0.06275668
249	0xbd91bd11	-0.0711614
250	0xbdab8663	-0.083752416
251	0xbe02a998	-0.12760007
252	0x3b193d59	0.0023382513
253	0x3e0289e4	0.12747914
254	0xbd7d1b09	-0.06179336
255	0xbdde88c7	-0.10865932

fc2.bias f4 [64]
0	0x3c90399f	0.0176056
1	0x3da3a784	0.079909354
2	0xbc5dfe17	-0.013549349
3	0xbd8bb1d3	-0.06821027
4	0x3dbee67c	0.09321305
5	0xbcdde684	-0.027087457
6	0xbb7eba8a	-0.003886851
7	0x3cd79b9f	0.026319323
8	0xbe0db47c	-0.1383838
9	0xb918514e	-0.00014526138
10	0xbdbcb8d6	-0.09214942
11	0x3d49c10b	0.049256366
12	0x3dd5130d	0.10404024
13	0xbdcec6ca	-0.1009651
14	0x3bc5b975	0.006034071
15	0xbdffb767	-0.12486153
16	0xbbb69940	-0.005572468
17	0xbd58db84	-0.05294372
18	0xbe456df6	-0.19280228
19	0xbdcac548	-0.0990091
20	0xbe244f40	-0.16045856
21	0x3be33acb	0.006934499
22	0x3d3d8f8f	0.046279486
23	0xbda4b1c7	-0.08041721
24	0xbdb119ab	-0.08647474
25	0xbdbc023b	-0.09180113
26	0xbd05307e	-0.03251695
27	0xbcad469e	-0.021151837
28	0xbd9c12b5	-0.076207556
29	0x3cdcd933	0.026959037
30	0xbdeff12f	-0.11715924
31	0xbe0394d6	-0.12849745
32	0xbe081dfb	-0.13292687
33	0xbdfffeac	-0.12499747
34	0xbe295537	-0.16536413
35	0xbd46c3ad	-0.048526455
36	0xbd755447	-0.059894826
37	0xbe036dcb	-0.12834851
38	0xbe092af8	-0.13395298
39	0xbcfcf815	-0.030880013
40	0xbd6cb602	-0.057790764
41	0xbda12345	-0.07868055
42	0xbdc1572f	-0.09440457
43	0xbe190a48	-0.14945328
44	0xbe00388e	-0.12521574
45	0xbd9d5ad9	-0.076833434
46	0x3ceb1919	0.028698491
47	0x3d86785c	0.065659255
48	0x3d95ecbd	0.07320545
49	0xbdeb82f2	-0.11499585
50	0xbdf20a7f	-0.11818408
51	0xbd8175f1	-0.06321324
52	0xbe1c0b94	-0.15238792
53	0xbe4bfa8d	-0.19919796
54	0xbdeb6e62	-0.11495663
55	0xbd9bbe51	-0.07604659
56	0x3cb1d79b	0.021709254
57	0xbdd052fc	-0.10172078
58	0xbcfceaa0	-0.030873597
59	0xbda357ff	-0.07975768
60	0xbe0707d0	-0.13186574
61	0xbbbdbd2c	-0.0057903733
62	0xbd8780c5	-0.06616358
63	0xbde7e935	-0.113237776

bn2.weight f4 [64]
0	0x3f7ac5fd	0.97958356
1	0x3f291044	0.66040444
2	0x3f1b9712	0.6077739
3	0x3f36a6cc	0.7134826
4	0x3f358d97	0.70919174
5	0x3f1e4585	0.6182483
6	0x3f1d4f1a	0.61448824
7	0x3f506aee	0.8141316
8	0x3e64374e	0.22286722
9	0x3e8f7c9f	0.28024766
10	0x3eee8977	0.46589252
11	0x3f56bc59	0.83881146
12	0x3f4b7a54	0.7948353
13	0x3eb050e6	0.3443672
14	0x3e292217	0.1651691
15	0x3f56651c	0.8374803
16	0x3e5d5166	0.21613082
17	0x3ef46a82	0.4773751
18	0x3eca893f	0.39557835
19	0x3f5ea833	0.869754
20	0x3e6f9fe7	0.23400842
21	0x3da0c62b	0.078502975
22	0x3e24b652	0.16085175
23	0x3eddfe25	0.4335796
24	0x3e94bfd7	0.29052612
25	0x3f65ba60	0.8973751
26	0x3f186ff6	0.5954584
27	0x3f40d243	0.75320834
28	0x3e0a66f8	0.13515842
29	0x3e9c5965	0.30536953
30	0x3f2c6626	0.67343366
31	0x3ecda83f	0.40167424
32	0x3e060e65	0.13091429
33	0x3f36db23	0.71428126
34	0x3e4696e6	0.193935
35	0x3f186db2	0.5954238
36	0x3f4647d2	0.7745334
37	0x3ebb52f1	0.36586717
38	0x3e414524	0.18874031
39	0x3e1c2562	0.15248635
40	0x3e9a7651	0.30168393
41	0x3f223f81	0.6337815
42	0x3f48d569	0.7845064
43	0x3f760b4f	0.96111006
44	0x3e328327	0.17432843
45	0x3f516883	0.818001
46	0x3f2c1b64	0.67229295
47	0x3ecd8d1e	0.40146726
48	0x3f029542	0.51009
49	0x3f6c3cad	0.92280084
50	0x3f34361c	0.70395064
51	0x3f0d749f	0.55256075
52	0x3e8406f9	0.2578657
53	0x3e454c34	0.1926735
54	0x3ea0f7dd	0.31439105
55	0x3e7cc731	0.2468536
56	0x3f31917e	0.6936263
57	0x3ee6be2b	0.45066962
58	0x3f0fbb07	0.56144756
59	0x3e1c0042	0.15234473
60	0x3f1b50b3	0.6067001
61	0x3f56a75b	0.83849114
62	0x3ea27802	0.31732184
63	0x3f237947	0.6385693

bn2.bias f4 [64]
0	0x370832ea	8.118086e-06
1	0xb65d0771	-3.2935898e-06
2	0xb717d325	-9.049462e-06
3	0xb70f2a61	-8.533331e-06
4	0xb67973b8	-3.7171249e-06
5	0x371c5e76	9.320318e-06
6	0xb667fb71	-3.456804e-06
7	0xb70288d7	-7.780464e-06
8	0xb89975d2	-7.317554e-05
9	0x37bec4fd	2.2741495e-05
10	0x374bfb07	1.215819e-05
11	0xb579575b	-9.288685e-07
12	0x36b89a87	5.5016167e-06
13	0xb7c7a2c7	-2.3798448e-05
14	0xb5644dde	-8.504993e-07
15	0xb51adf34	-5.7694274e-07
16	0xb80c852b	-3.3502623e-05
17	0xb7e51141	-2.7306962e-05
18	0x3846f6a9	4.74366e-05
19	0xb67d3d3b	-3.7735579e-06
20	0xb89bbe2f	-7.4264004e-05
21	0x382a05c3	4.0536524e-05
22	0xb5e65050	-1.7159709e-06
23	0xb84e5948	-4.9197377e-05
24	0xb65c8240	-3.285837e-06
25	0x352aa894	6.357525e-07
26	0x3683e6d1	3.930975e-06
27	0xb6cd6dfb	-6.1222795e-06
28	0xb7a01090	-1.9081199e-05
29	0x3736bd11	1.0892066e-05
30	0xb83bb100	-4.474912e-05
31	0x35988c61	1.1365738e-06
32	0x385c389a	5.25048e-05
33	0x37c71174	2.3730776e-05
34	0x391e6527	0.00015105736
35	0xb72df072	-1.0367587e-05
36	0x382047fd	3.8214017e-05
37	0xb6c5896b	-5.887055e-06
38	0x36ae1c30	5.1888856e-06
39	0xb77f1d75	-1.5206043e-05
40	0x3882df63	6.240492e-05
41	0xb7b01da4	-2.0994637e-05
42	0x35a0b314	1.1973048e-06
43	0xb6ea2b38	-6.9787748e-06
44	0xb9290d58	-0.00016122067
45	0xb792f447	-1.7518307e-05
46	0x3796605e	1.7926268e-05
47	0xb7b3210c	-2.1353851e-05
48	0x35c1fe41	1.4453618e-06
49	0xb68a8bd5	-4.128999e-06
50	0x3771e9e4	1.4419176e-05
51	0x3728b312	1.0055273e-05
52	0x381dedc5	3.7653157e-05
53	0x38a0b6ea	7.663465e-05
54	0xb76e5598	-1.4205834e-05
55	0x37098ba5	8.19835e-06
56	0x36601bd8	3.3394808e-06
57	0xb74d8a38	-1.2251134e-05
58	0x36b15a96	5.2855567e-06
59	0xb7547b71	-1.2664926e-05
60	0xb8317d0a	-4.231654e-05
61	0xb6d84633	-6.445474e-06
62	0xb67705c3	-3.6809222e-06
63	0xb80b4f1f	-3.321387e-05

bn2.running_mean f4 [64]
0	0x3eca79ad	0.39545956
1	0x3eb57efc	0.35448444
2	0x3dfa26d8	0.1221444
3	0x3c904998	0.017613217
4	0x3eb9ec0c	0.36312902
5	0x3e149e45	0.145135
6	0x3e00e040	0.12585545
7	0x3de00181	0.10937787
8	0x3da60675	0.081067
9	0x3e61b8b7	0.2204312
10	0x3e088c04	0.13334662
11	0x3e0a846a	0.13527074
12	0x3e75162d	0.2393424
13	0x3c1d4ccb	0.009600828
14	0x3e52dc86	0.20591936
15	0x3e74e017	0.23913608
16	0x3e0e666a	0.13906255
17	0x3e639854	0.22226077
18	0x00000004	6e-45
19	0x3b42e9b9	0.002974136
20	0x3c343a4c	0.011000227
21	0x3dedf690	0.11619294
22	0x3e77bdaa	0.24193445
23	0x3dbea87b	0.09309479
24	0x3d185ab2	0.03719587
25	0x3b047d11	0.0020216147
26	0x3d6550e3	0.055985343
27	0x3e4232a8	0.18964636
28	0x3e6822aa	0.22669473
29	0x3e1b396b	0.15158622
30	0x3c3573d2	0.011074977
31	0x3c0ab3bc	0.008465704
32	0x3d5a77f1	0.05333704
33	0x3c03cb94	0.008044142
34	0x3766c45e	1.3754789e-05
35	0x3e2e9770	0.17049956
36	0x3cbf26e5	0.023333976
37	0x3ca889dc	0.020573549
38	0x3cb01914	0.021496333
39	0x3cbaf5e6	0.022822332
40	0x3ca3c373	0.019990658
41	0x3b410042	0.0029449617
42	0x3dfb1b67	0.12261086
43	0x3e028791	0.12747027
44	0x3cb5e681	0.02220464
45	0x3d43de04	0.047819152
46	0x3de71379	0.11283011
47	0x3e78e40f	0.24305747
48	0x3e98774e	0.29778522
49	0x3e5fa231	0.21839215
50	0x3dc0a67c	0.094067544
51	0x3e564d5b	0.20927946
52	0x3deb2b98	0.11482924
53	0x3bd51d98	0.006503772
54	0x3e31bf68	0.17358172
55	0x3d8f5dde	0.070003256
56	0x3e812f82	0.25231558
57	0x3d036022	0.0320741
58	0x3d74053a	0.059575297
59	0x3ce7f207	0.02831365
60	0x3d2f8b6a	0.042857565
61	0x3e35a1c0	0.17737484
62	0x3e4d63af	0.20057558
63	0x3c409ecc	0.01175661

bn2.running_var f4 [64]
0	0x3e59b921	0.21262027
1	0x3e3ca230	0.18421245
2	0x3d4fb1e4	0.05070676
3	0x3b6acdbb	0.0035828191
4	0x3df55b59	0.11980314
5	0x3d8768c8	0.06611782
6	0x3d19b1ce	0.037523083
7	0x3d504176	0.05084368
8	0x3ce1acc9	0.02754821
9	0x3dbc8847	0.0920568
10	0x3dac0ced	0.08400903
11	0x3d928865	0.071549214
12	0x3dc65c35	0.09685556
13	0x3afdcc9d	0.0019363348
14	0x3dc417c8	0.095748484
15	0x3e0fc08a	0.14038292
16	0x3d831960	0.06401324
17	0x3df93574	0.121683985
18	0x00000004	6e-45
19	0x3a1cc2d0	0.0005979957
20	0x3b3a5a4c	0.0028435169
21	0x3d27bf7b	0.040954094
22	0x3d990f9d	0.07473681
23	0x3d166fe4	0.0367278
24	0x3c43e5f1	0.011956678
25	0x3978464a	0.00023677308
26	0x3c8e15f3	0.01734445
27	0x3de31fce	0.11090051
28	0x3e140dc9	0.14458384
29	0x3d635408	0.05550006
30	0x3ab321d1	0.0013666694
31	0x3b0ca245	0.0021459025
32	0x3c8f8f40	0.017524362
33	0x3abb9486	0.0014311231
34	0x35f66271	1.8357078e-06
35	0x3d8e5b94	0.06951061
36	0x3bbb2e31	0.0057122936
37	0x3b93eafb	0.004514096
38	0x3bea7086	0.007154527
39	0x3b67db8f	0.003537867
40	0x3b8acf1a	0.004236114
41	0x3a1a4d29	0.00058861315
42	0x3d86bd95	0.06579129
43	0x3dd3eecf	0.103482835
44	0x3b9f138d	0.0048546256
45	0x3c8ffa78	0.017575487
46	0x3d372259	0.04471049
47	0x3dcd8536	0.100351736
48	0x3db0e0ba	0.08636613
49	0x3d989de7	0.074519925
50	0x3d0ec5c1	0.03485656
51	0x3da87c4f	0.08226835
52	0x3dae224a	0.08502634
53	0x3abca7f7	0.0014393319
54	0x3daebeba	0.08532472
55	0x3d382858	0.04496035
56	0x3d8d27ec	0.0689238
57	0x3bd56650	0.0065124407
58	0x3cc1b582	0.02364612
59	0x3c3c501b	0.011493708
60	0x3c6a7efb	0.014312501
61	0x3d9bf31e	0.0761473
62	0x3d67abad	0.056560207
63	0x3b238b63	0.0024954907

fc3.weight f4 [2, 64]
0	0x3ce6fc9d	0.028196627
1	0xbc9b375f	-0.018947301
2	0xbcdadbb9	-0.0267161
3	0x3b7964e4	0.003805452
4	0x3ba5321a	0.005041373
5	0x3c2e9250	0.010655001
6	0xbd09091c	-0.033455953
7	0xbc4b191b	-0.012396122
8	0xbdd1afee	-0.10238634
9	0xbc49095a	-0.012270296
10	0xbcda40a7	-0.026642157
11	0x3cb733c5	0.022363553
12	0x3c8d8822	0.017276827
13	0xbcfd589d	-0.030926043
14	0x3c0ec56b	0.00871406
15	0xbc7b9e06	-0.0153575
16	0x3d03e9ae	0.032205276
17	0xbd429672	-0.047506757
18	0xbbbc4fbd	-0.00574681
19	0xbc9d6093	-0.01921109
20	0x3d1cad94	0.038251474
21	0xbd74913b	-0.059708815
22	0xbcf2c853	-0.029636538
23	0x3d7b9237	0.06141874
24	0x3c4a5554	0.012349445
25	0x3ced2035	0.028946022
26	0x3ccb614a	0.024826664
27	0x3b6ffc04	0.003661872
28	0xbc7b9ff9	-0.015357965
29	0xbcb71cb3	-0.022352552
30	0x3d4e1f01	0.050322536
31	0x3ddb5acd	0.10710678
32	0xbda596bb	-0.0808539
33	0xbd7942ea	-0.06085483
34	0x3d1d32d0	0.038378537
35	0xbb934ef2	-0.004495495
36	0x3c6a3c90	0.014296666
37	0xbd22f22d	-0.039781738
38	0x3e27ec48	0.16398728
39	0x3b3d581d	0.002889163
40	0xbd483cf2	-0.048886247
41	0x3c8279c8	0.01592721
42	0xba75f7ce	-0.0009382934
43	0xbbaa1965	-0.0051910155
44	0x3e086041	0.13317968
45	0xbc188074	-0.009307969
46	0xbd15421a	-0.036439992
47	0x3d54dda5	0.05196919
48	0x3c3ffc32	0.011717843
49	0x3ca92075	0.02064536
50	0x39b56e00	0.00034604967
51	0xbcdad179	-0.026711212
52	0x3d3ca32b	0.046054047
53	0xbd56762f	-0.052358802
54	0x3c705dfd	0.014670846
55	0x3cb0006e	0.02148458
56	0x3b95b18c	0.0045682844
57	0xbca1bd92	-0.019743714
58	0x3c280da1	0.010257156
59	0xbd3cd363	-0.04610003
60	0xbd60c17b	-0.054872017
61	0x3b8e88b7	0.004349794
62	0xbd56b8da	-0.052422382
63	0xbd861ca4	-0.065484315
64	0x3c172044	0.009224001
65	0x3cb2820c	0.021790527
66	0xbc1f3e36	-0.009719422
67	0xbcaa7b27	-0.020810677
68	0x3c8af898	0.016964242
69	0xbd453980	-0.04815054
70	0xbd183b2b	-0.037165802
71	0xbd17ab83	-0.0370288
72	0xbc819d36	-0.015822034
73	0x3d596abc	0.053080305
74	0xbc76ec6d	-0.015071017
75	0xbd145bf3	-0.036220502
76	0x3b89bf71	0.00420373
77	0x3cfedf2a	0.031112272
78	0x3d88ca07	0.06679159
79	0xbc49c920	-0.012316018
80	0xbd5fbcbb	-0.054623347
81	0x3cd58735	0.026065448
82	0x3d2a4ebf	0.041579004
83	0xbbf3f4a6	-0.007444936
84	0x3c7dddaa	0.015494743
85	0x3d75a225	0.059969086
86	0x3cd4fece	0.026000407
87	0xbc3ffdd2	-0.01171823
88	0x3da34291	0.07971681
89	0xbb7c0cfd	-0.003845989
90	0xbd32de5e	-0.043669097
91	0x3d299064	0.041397467
92	0x3e0ce258	0.13758218
93	0x3d55bcb2	0.052181907
94	0xbbe38a83	-0.006944002
95	0x3b8ac550	0.0042349473
96	0xbc81d667	-0.015849305
97	0x3b899a05	0.0041992688
98	0x3d2a670d	0.041602183
99	0xbc94ad26	-0.01814897
100	0xbc1f1bfa	-0.00971126
101	0x3c907a2c	0.017636381
102	0xbc876c36	-0.016531091
103	0xbd68bd65	-0.056821246
104	0xbd03f51b	-0.032216173
105	0x3ab2ad9d	0.0013632063
106	0xbc9e5078	-0.01932548
107	0x3d3f496b	0.046700876
108	0xbb8d67fc	-0.0043153744
109	0xbd01d8ea	-0.031701006
110	0x3998b01e	0.00029122917
111	0xbc0d5e07	-0.008628375
112	0x3c9dd1e4	0.019265123
113	0xbc31ded7	-0.010856352
114	0x3d0688ce	0.03284531
115	0x3d037089	0.032089744
116	0x3ca57ffe	0.020202633
117	0x3e0b087f	0.1357746
118	0x3cdfa6e0	0.027301252
119	0x3d3ec42b	0.0465738
120	0xbbb6954c	-0.005571997
121	0x3c82d0e1	0.015968742
122	0x3c673e83	0.014114025
123	0x3d3ebbc2	0.04656578
124	0xbc47b208	-0.012188442
125	0xbc849c69	-0.016187863
126	0xbca71eac	-0.020400368
127	0x3ba07d02	0.0048977146

fc3.bias f4 [2]
0	0xbd88e8bb	-0.06685015
1	0x3b56c9af	0.0032774021

bn3.weight f4 [2]
0	0x4030e4da	2.763968
1	0x400068ea	2.0064034

bn3.bias f4 [2]
0	0xbecc1420	-0.39859104
1	0xbe0a5f8d	-0.13513012

bn3.running_mean f4 [2]
0	0xbd88fb20	-0.06688523
1	0x3b596617	0.0033172423

bn3.running_var f4 [2]
0	0x3c73ff6a	0.014892438
1	0x3c045835	0.008077671
