Project3_CollaborationAndCompetition/critic_1.pth (torch_old, 52341 bytes, 17 tensors)

bn0.weight f4 [24]
000000 43 54 1f 3e d3 f1 8f 3e 7f c9 9a 3d b2 81 00 3e
       0.15559487 0.28114185 0.075579636 0.12549475
000010 fb d8 5c 3f d6 c5 1b 3f 57 55 5e 3d 8b e6 8c bb
       0.86268586 0.6084875 0.054280605 -0.004299944
000020 47 26 1c 3e 17 bf c1 bb ec 3f a1 3d 3b c5 c7 3d
       0.15248977 -0.0059126723 0.0787352 0.097544156
000030 d9 78 1e 3f 78 bb 2f 3f d4 8a 6c 3d ae 04 ed 3d
       0.6190315 0.6864543 0.057749584 0.11573158
000040 aa 46 d2 3e da b3 86 3e 7a 9c 0c 3d 8d cd fb 3d
       0.41069537 0.2630909 0.034328915 0.12295065
000050 69 c4 50 3f 6d b1 56 3f fe 01 07 3e ff 64 a5 3e
       0.815497 0.8386448 0.13184354 0.32303616

bn0.bias f4 [24]
000000 1f c6 84 bc 89 bf 7a bb 66 e7 ba 3b 96 24 18 bc
       -0.016207753 -0.0038261137 0.0057038544 -0.0092860665
000010 df 3a 73 3e f5 b7 dc 3d 17 07 dc 3b 5d 1e f2 bb
       0.23752926 0.107772745 0.0067147124 -0.0073888735
000020 ae 89 04 bc 37 d9 83 3c a6 fe 9c 3c fb 67 0f bd
       -0.008089466 0.016094787 0.019164395 -0.035011273
000030 a3 76 8a 3e ce d9 2a 3e 4e f0 1c bb 99 97 7c bc
       0.27043638 0.16684648 -0.0023946944 -0.015417003
000040 3e 58 f3 bb 26 bc 03 3e ec d0 e6 3b 82 af c1 bc
       -0.007426291 0.12864742 0.0070439484 -0.023643259
000050 2b 4c ab 3e 8c 89 2b 3e ed 5c d8 3b 77 21 f7 bd
       0.3345655 0.16751689 0.0066028745 -0.1206693

bn0.running_mean f4 [24]
000000 b6 28 ec c0 70 16 46 bf 19 99 ea 3f df 89 c0 3c
       -7.3799696 -0.77377987 1.8327972 0.023503242
000010 03 fc cb bb 8a 29 14 40 19 99 ea 3f df 89 c0 3c
       -0.0062251105 2.3150353 1.8327972 0.023503242
000020 ec 24 f0 c0 4c 08 4a bf 34 38 09 40 25 6c c6 3c
       -7.504507 -0.7891891 2.1440554 0.02422149
000030 c3 fb 76 3c 0a d9 14 40 34 38 09 40 25 6c c6 3c
       0.015074673 2.325747 2.1440554 0.02422149
000040 65 5d f4 c0 20 4a 4e bf 62 7a 09 40 18 61 f5 bb
       -7.6364007 -0.80581856 2.1480947 -0.007488381
000050 b7 78 f6 3b a8 a4 14 40 62 7a 09 40 18 61 f5 bb
       0.0075217145 2.3225498 2.1480947 -0.007488381

bn0.running_var f4 [24]
000000 80 15 4a 41 2d 73 90 3f 4b 11 92 43 2b b9 11 41
       12.630249 1.1285149 292.1351 9.107707
000010 e7 f2 01 42 20 f6 6d 40 4b 11 92 43 2b b9 11 41
       32.48721 3.7181473 292.1351 9.107707
000020 c5 18 3a 41 c6 21 91 3f f6 f3 93 43 d1 6e 17 41
       11.631047 1.1338432 295.90594 9.464555
000030 fa 8e 07 42 01 15 73 40 f6 f3 93 43 d1 6e 17 41
       33.889626 3.798157 295.90594 9.464555
000040 b8 3b 2f 41 40 59 91 3f 47 9e 96 43 67 1a 1e 41
       10.95208 1.1355362 301.23654 9.881446
000050 4b b0 0d 42 71 d4 7c 40 47 9e 96 43 67 1a 1e 41
       35.42216 3.9504664 301.23654 9.881446

fc1.weight f4 [128, 24]
000000 96 2a 23 bc 15 04 1b 3e 7b 50 a2 bd 72 70 ed 3d
       -0.009958884 0.15138276 -0.07925507 0.11593713
000010 01 24 65 bd cd 38 67 bd 8f d3 10 bd 29 e0 cf bc
       -0.05594254 -0.056450654 -0.035358008 -0.025375443
000020 be 54 99 3c 6c 25 76 be 80 61 7d bd 94 ed dd 3d
       0.018717166 -0.24037713 -0.06186056 0.1083633
000030 19 91 cc 3e 41 f1 57 3d 9d 4a bc bc cd 91 33 3d
       0.3995445 0.052720312 -0.022984797 0.04384022
000040 22 1f 8c 3c 71 d8 3f be bf 1e 35 bd 9c 4f a9 bd
       0.017104689 -0.1873491 -0.044218775 -0.082671374
000050 5c ee ae 3f d6 86 b9 3c 92 5f 2a bd 2d 13 19 3d
       1.3666492 0.022647303 -0.04159505 0.037371803
000060 76 c3 69 3b 47 dd c7 3d 90 7b c6 bd 9f 09 e7 3b
       0.0035669482 0.09759002 -0.096915364 0.0070507075
000070 28 ce 06 3e c5 01 04 3e 7e d0 d0 bd 2f 4b 28 3d
       0.1316458 0.128913 -0.10196017 0.041087326
000080 a9 fe fd 3d fc fa 90 be fb 94 46 be 3f 71 e8 3e
       0.12402088 -0.28316486 -0.19392769 0.453989
000090 97 6b f6 bd a8 fc 51 3d f2 fd a3 bd 6c f5 ca 3e
       -0.1203224 0.051266342 -0.080074206 0.39640367
0000a0 2b e7 da bc 8e 01 16 be a0 82 e4 bd 92 57 8e 3e
       -0.026721558 -0.1464903 -0.11157727 0.27801186
0000b0 b6 32 1f bf 9a 6b e0 bd 2a dd 14 bd 92 e5 cf 3e
       -0.62186754 -0.10958023 -0.03634373 0.40604836
0000c0 5e c5 95 bd 46 7a fc 3e e6 09 1a be 5d df f8 3d
       -0.073130354 0.49312037 -0.15042838 0.12151978
0000d0 ec 48 7d be e7 49 6e be b8 ce fc bd 00 02 3c bb
       -0.24734849 -0.23270379 -0.12344116 -0.0028687716
0000e0 6c 40 6a 3e 64 55 17 bd ec af 9d be 94 a0 d6 3c
       0.22876137 -0.03694667 -0.3079828 0.026199616
0000f0 c8 75 5e 3e 02 18 34 3e 25 3f 91 be e6 67 ff 3c
       0.21724617 0.17587283 -0.28368488 0.031177472
000100 a0 dd 87 bc 41 2a 4d 3d ee 0c 68 be 8c d1 15 bd
       -0.016585171 0.050089125 -0.22661182 -0.036576793
000110 0c 27 4a 3e 17 94 78 be 13 f6 50 be 0e 28 53 3d
       0.19741458 -0.24275242 -0.2040637 0.05155187
000120 f9 57 22 be d0 4a 02 3e 12 35 3e 3e 0e bf bb be
       -0.15853871 0.12723851 0.18574932 -0.366692
000130 36 42 1a 3e c7 d4 ba 3e a4 a0 f4 3d db 59 79 bd
       0.1506432 0.3649046 0.11944702 -0.06087671
000140 12 44 8d be c6 53 ef bc 20 30 84 be 71 1d 05 3d
       -0.27590996 -0.029214751 -0.25817966 0.03249878
000150 ca 19 b1 bd e2 4e 9c be 69 98 9d be db 78 86 3d
       -0.08647497 -0.30528933 -0.30780342 0.0656602
000160 57 ea 48 3e 75 9f 99 3d cd 95 0c 3e 8f 4a 12 3e
       0.19620644 0.07501117 0.1372902 0.14286254
000170 ba f2 bc bd 64 78 6e 3d fc 5f 1d 3e 13 5b 21 3e
       -0.09225984 0.058220282 0.15368646 0.15757398
000180 a0 8b f6 bd 54 33 a2 3d a8 3b 84 bd 54 4d 69 3d
       -0.1203835 0.07919946 -0.06456691 0.05695851
000190 82 06 c1 3e ac 8a 95 be f3 c1 55 bd ef 6b 24 3c
       0.37700278 -0.2920736 -0.052186918 0.010035499
0001a0 35 ca 67 be b0 3f 3d 3d f9 01 3a bc 0e cc 59 bd
       -0.2263573 0.046203315 -0.011353009 -0.053173117
0001b0 97 23 9c bc 0d 78 92 bd c0 8a 50 bd 26 c7 af bd
       -0.01905994 -0.07151804 -0.050913572 -0.085829064
0001c0 8d b6 10 be 24 e2 64 3e ed 26 9a bd bf 32 c9 ba
       -0.14132138 0.22351891 -0.07526956 -0.0015350207
0001d0 94 21 6d bf 23 69 0b 3f 3b 6b eb bd 7d 05 5b bd
       -0.9262936 0.544573 -0.11495062 -0.05347203
0001e0 a3 8d 27 bd 52 2f da bd 63 61 3e be cf 8d 78 3e
       -0.04090656 -0.10653557 -0.18591838 0.24272846
0001f0 29 90 a7 3d 8f d7 43 bd 29 d8 bd bd 95 44 b8 bc
       0.08181793 -0.047812995 -0.09269745 -0.02249364
000200 ff 32 6d bd fb e4 a9 bd a3 2b 4f be 53 0d 23 3f
       -0.05790996 -0.08295628 -0.2023149 0.63692206
000210 e5 ba b3 3c cf dd 67 3e d0 41 02 be 48 27 f7 3e
       0.021939704 0.22643207 -0.12720418 0.48272157
000220 d6 c4 ac bd 88 9b 10 3d f5 98 9f 3d d7 b5 21 3e
       -0.08435981 0.035304576 0.07792846 0.15792023
000230 a6 b3 9e 3d c5 ba f8 be c7 21 2b 3e 0b 1e 94 3e
       0.07749109 -0.48579994 0.16712104 0.2892917
000240 af 73 45 3e a9 5a d2 3e 99 2c 3d be 03 88 31 be
       0.19282411 0.41084793 -0.18474044 -0.1733704
000250 64 8e 93 3d b4 88 01 3e 95 a3 41 be be 86 0a bc
       0.07204893 0.12649804 -0.18910058 -0.008454977
000260 3e 5e be 3e b4 d2 19 bc e6 8b 94 3e e8 9a 53 be
       0.37181276 -0.009388614 0.29012984 -0.20664561
000270 d4 bd 9d 3d 0f d5 c3 3d 2b ce 78 3e f2 3e 1e be
       0.077022225 0.09562122 0.24297397 -0.15453699
000280 66 c9 03 3d 48 fe 01 3e d4 be 19 be a2 ce e6 be
       0.03217449 0.12694657 -0.15014201 -0.45079523
000290 f9 97 0d 3e 3c 35 88 bd c2 cf 1b be b4 b4 be be
       0.13827504 -0.06650779 -0.15215972 -0.3724724
0002a0 eb 5b ea 3d 28 b8 82 3e 79 3a 88 3c 09 1b a1 be
       0.11443313 0.25531125 0.016629444 -0.3146594
0002b0 20 d8 d1 be f5 08 d8 be fa 8d 73 3d 63 10 d2 bb
       -0.40985203 -0.42194334 0.05946157 -0.006410645
0002c0 8d f2 22 bc 8c aa 28 be 7f 55 93 3d 0c 59 1e be
       -0.009945524 -0.16471308 0.071940415 -0.15463656
0002d0 12 5b e4 3d b9 bd 3c 3c f1 74 06 3b f6 26 fb bd
       0.11150183 0.011519843 0.002051648 -0.122632906
0002e0 b8 a4 ae bd 86 50 1c 3e e3 76 88 3d 65 ee 1a be
       -0.08527511 0.15265092 0.06663301 -0.15130003
0002f0 36 ca de 3e de 9e 95 3e 72 5e 67 3e 4c b8 62 bd
       0.4351365 0.2922277 0.22594622 -0.05535154
000300 42 3d bb bc 75 47 87 bc de 11 4c be 96 da 1d be
       -0.022856358 -0.016513566 -0.19928691 -0.15415415
000310 b1 9c c5 3d 84 62 90 3e f4 d3 81 be 63 aa 7d bc
       0.09649027 0.2820016 -0.2535702 -0.015482518
000320 67 7c 94 3d 1c 95 48 be 6f 33 2b bd 6f 8d 78 be
       0.0725029 -0.1958813 -0.041797098 -0.24272703
000330 0f c2 a5 3e cb 87 13 bf 40 c8 0a 3d 14 2e ba be
       0.32374617 -0.5762908 0.03388238 -0.3636328
000340 ff 01 ba bd 1c 19 65 be 9b 70 a9 bd b5 5d 57 3d
       -0.09082412 -0.2237286 -0.08273431 0.0525796
000350 89 70 be bd 41 e0 9d 3e 7a 00 df bd 79 33 72 3c
       -0.09298808 0.30835155 -0.10888763 0.01478278
000360 2c 4a d3 be f1 5b b7 3d 44 67 86 bd 5e df 2f bd
       -0.41267526 0.08953083 -0.06562665 -0.04293763
000370 3f c0 95 3e 04 6d 4e 3e 37 b4 89 bd 67 df 01 3c
       0.29248235 0.20158774 -0.067238264 0.007926798
000380 d6 a0 d7 bd a1 49 17 be c9 ca 20 be 77 bf b0 3c
       -0.10528724 -0.14774181 -0.15702356 0.021575673
000390 69 0f 71 3e cb 3c 8f 3c 96 7b 05 be a9 bc 18 bd
       0.23541035 0.017485043 -0.13035426 -0.037289295
0003a0 2e 92 d3 3d 64 b1 b0 3d 6f ed 1e bb 5f 9b f6 3e
       0.10330616 0.086275846 -0.0024250408 0.48165414
0003b0 18 16 21 bf d0 da 67 be 6d c7 fb bd 6a 03 10 3f
       -0.6292434 -0.22642064 -0.12293897 0.5625521
0003c0 ca cd 28 be 34 1c 6f bb 08 ab 89 be d6 bb ce 3c
       -0.16484752 -0.0036485316 -0.268883 0.025236052
0003d0 bb 46 99 3c 6c 0a 32 3e 31 ef a0 be 73 94 ff bc
       0.018710485 0.17386788 -0.3143249 -0.031198716
0003e0 ae fc a2 be f4 98 23 be f1 a9 0f be 0a cf 6d be
       -0.31833404 -0.15976316 -0.14029671 -0.2322351
0003f0 db 95 0c 3e 13 9a e2 bd ed 80 4d bd ec 5f 3f be
       0.1372904 -0.110645436 -0.05017178 -0.18688935

fc1.bias f4 [128]
000000 48 f0 11 bf ce 17 b6 be 42 65 ea bd 63 dc cd 3b
       -0.57007265 -0.35565037 -0.11445095 0.0062823757
000010 2f 3b 96 be 07 29 d8 be 83 84 80 be e3 1f 69 be
       -0.29342028 -0.422188 -0.25101098 -0.2276607
000020 e2 e1 bf 3d 85 e8 c6 bd 66 d8 e0 bd a9 b2 a1 3c
       0.093692556 -0.09712318 -0.10978775 0.019738512
000030 de db 32 be ee 18 d5 be 6b a5 84 be 49 c9 ba be
       -0.17466685 -0.41620582 -0.25907454 -0.36481693
000040 56 bd 0e be 9c 4e 5e be 44 55 8e 3d 14 03 06 be
       -0.13939413 -0.21709675 0.06949857 -0.13087112
000050 ed 18 9e be 02 0a 0c be 02 c4 c5 3d a4 ac 91 be
       -0.30878392 -0.13675693 0.09656526 -0.28452027
000060 34 da f3 be 0a df 8a be 0c 35 5e 3d fc aa 87 be
       -0.47627413 -0.2712329 0.05424981 -0.26497638
000070 11 23 87 be 2c 6c 05 bf 8f fd 5b 3d 42 c8 da be
       -0.2639394 -0.5211818 0.05370861 -0.4273091
000080 e9 87 22 be 76 c4 2d be 3c f4 ba 3d c4 e3 bd bd
       -0.15872158 -0.16969475 0.09128615 -0.092719585
000090 c9 2f 98 be bd 2f 0b bc d6 cf d3 3d 6d 41 ed bd
       -0.29723957 -0.008495268 0.10342376 -0.115847446
0000a0 89 5c bc be e0 e9 87 be eb 3b 2f be d5 98 e1 bc
       -0.3678935 -0.2654562 -0.171127 -0.027538696
0000b0 ec a4 36 be 56 e1 01 3d 4d 65 c6 be 2a 5c 95 bc
       -0.1783635 0.031709038 -0.3874916 -0.018232424
0000c0 a8 68 65 3d ef 45 0e bf be 98 b0 be f6 d4 10 be
       0.05600801 -0.5557546 -0.34491533 -0.14143738
0000d0 88 93 5c 3e 49 90 ac be 88 82 b6 3c 53 23 3c be
       0.21540654 -0.3370383 0.022279039 -0.1837285
0000e0 54 0e 9c 3c 0a 1b e1 bd 17 56 85 be 64 f2 bf be
       0.019049801 -0.109914854 -0.26042244 -0.37489617
0000f0 2c 4f f2 bd 6f f1 f0 bd 20 03 a4 be df c8 db be
       -0.11831507 -0.117648 -0.32033634 -0.4292669
000100 6c 60 07 3e 5b a7 cc be 8e 82 30 be 29 da c7 be
       0.13220376 -0.39971432 -0.17237303 -0.3903363
000110 78 a1 da be 55 b0 b5 be 99 fc 06 be a0 5d fd bc
       -0.42701316 -0.35486093 -0.13182296 -0.030928433
000120 b1 f2 f8 3c da 95 d6 3d 5a a4 84 be 43 60 af be
       0.030389162 0.10477801 -0.2590664 -0.3425313
000130 93 d2 68 bf 0a 96 0e be e9 a4 b9 be fc 3a 59 be
       -0.9094631 -0.13924423 -0.3625863 -0.21213907
000140 f4 e0 d6 bd f3 20 7e bd 78 69 90 be 20 15 1d bf
       -0.10492125 -0.06204314 -0.28205466 -0.6136036
000150 b7 a6 2b be d9 63 a5 3c b9 92 3a be dd c2 e1 be
       -0.16762815 0.020189213 -0.18220033 -0.4409398
000160 79 28 54 bd ea e6 46 be ce 7c 88 bb 49 40 a0 be
       -0.05179641 -0.19424024 -0.0041652685 -0.31299046
000170 d7 b2 ba 3d 1d f3 b9 be 48 9a 54 be 2a 08 75 be
       0.09116142 -0.36318293 -0.20761979 -0.23928896
000180 dc 6a 0b be d0 53 c6 bd ba 12 79 be 05 e9 98 bd
       -0.13614982 -0.09683955 -0.2432355 -0.0746632
000190 55 8c cd bd 12 ee 89 be 33 1b 86 be 18 45 3e be
       -0.10036532 -0.26939446 -0.26192626 -0.18581045
0001a0 8e 1f 55 3e 4b 59 a5 be 42 51 72 bd 5a 68 85 3c
       0.20812818 -0.32294688 -0.059159525 0.01628511
0001b0 c7 7f cc 3c cf a2 89 be 88 c8 00 be 7e 73 08 3e
       0.024963273 -0.26882026 -0.12576497 0.13325307
0001c0 77 66 4f bd 51 be 9f be e8 3f 77 be 93 bc 08 bf
       -0.050634827 -0.31199887 -0.24145472 -0.5341274
0001d0 fc 1f 0b be de be ef bd 74 7c ef 3b c4 dd 8e be
       -0.1358642 -0.11706327 0.007308537 -0.2790357
0001e0 cb 14 1c be 52 ff 52 be fb 1b c1 be 97 b9 8c 3d
       -0.15242307 -0.2060521 -0.3771666 0.06871336
0001f0 1f e9 28 3d 40 08 c9 bd 75 98 bc be ff 81 8e bd
       0.041237947 -0.09816027 -0.36835065 -0.069583885

bn1.weight f4 [128]
000000 ac 7b 3c 3f 68 12 a0 3d 20 35 70 3f 26 83 0a 3f
       0.7362621 0.07816011 0.9383106 0.54106367
000010 bc f7 95 3e 00 5d 40 3c c6 49 1e 3f 60 e9 bd 3e
       0.2929057 0.011740923 0.6183132 0.37092113
000020 58 ea 1a 3f e8 d3 dd 3d 4b a6 31 3f 70 cd f1 3d
       0.6051383 0.108314335 0.6939437 0.11806762
000030 cb 88 65 3f da ea 07 3f 95 5c 3e 3f 03 ff 4b 3f
       0.89661855 0.5309273 0.7436002 0.7968599
000040 58 6d 73 3f 0f b1 13 3f 49 c7 66 3f e8 cc ac 3d
       0.9508872 0.57692045 0.90147835 0.0843752
000050 9a e8 5b 3f 97 e5 5d 3f 9c 62 78 3e b8 94 76 3e
       0.85901797 0.8667845 0.24256366 0.24080169
000060 b8 9d 69 3f ae dd 66 3f 48 b6 ab 3d 5c 5f 01 3f
       0.91256285 0.90182006 0.08384377 0.5053613
000070 10 e1 fd 3d e5 11 45 3f e8 4a a5 3d 9c 8b 83 3e
       0.12396443 0.7698043 0.08070928 0.2569245
000080 b4 44 61 3f fb f2 6b 3f 59 6c 71 3f 6a 38 0d 3f
       0.8799546 0.92167634 0.9430595 0.55164206
000090 80 0c 6c 3d f6 88 50 3f d9 cd 69 3f 15 a3 62 3f
       0.05762911 0.81458986 0.91329724 0.88530093
0000a0 9d 7e 50 3f c8 95 eb 3e 18 4c 40 3f 1a 04 1c 3f
       0.81443197 0.46012712 0.7511611 0.6094376
0000b0 4a 9b 87 3e 81 2b 53 3f 40 4a a1 3e 27 e9 4a 3f
       0.26485664 0.82488257 0.3150196 0.7926201
0000c0 20 ab e8 3e c8 02 e9 3e 4c 4b 36 3f 60 6b de 3e
       0.45443058 0.45509934 0.71208644 0.43441296
0000d0 35 df 34 3f a0 71 87 3d c0 2d 7d 3c a1 06 11 3f
       0.70653087 0.06613469 0.015452802 0.5665074
0000e0 02 57 c9 3e e0 eb 90 3e f0 d8 54 3d 03 64 0c 3f
       0.39324194 0.28304958 0.0519647 0.54840106
0000f0 54 d3 82 3e 8d ba 73 3f 70 9d ea 3d e2 25 a5 3e
       0.25551856 0.9520653 0.1145581 0.32255465
000100 9a 21 cf 3e 90 21 17 3f d0 d0 27 3d 43 39 46 3f
       0.40455323 0.5903559 0.040970623 0.77431124
000110 10 94 01 3d 58 21 6f 3e fe 6c 19 3f e2 46 da 3e
       0.031635344 0.23352563 0.59931934 0.42632204
000120 bc 9b 0f 3f 00 e9 5d 3b 54 d3 17 3e 85 61 55 3f
       0.56097007 0.0033860803 0.14826709 0.8335193
000130 56 d3 31 3f 44 cd 37 3f ad e0 47 3f 79 82 59 3f
       0.694631 0.71797585 0.78077203 0.8496471
000140 b2 0a 3f 3f d8 5f b1 3e 04 a3 80 3e f4 ff 22 3e
       0.74625695 0.34643435 0.2512437 0.15917951
000150 5d d9 25 3f 9e e5 f8 3e b0 01 85 3e e1 1e 4e 3f
       0.64784795 0.48612684 0.2597785 0.8051587
000160 7b 38 05 3f 02 a5 e4 3e bc 29 be 3e 74 48 0c 3e
       0.5203931 0.4465714 0.37141216 0.13699514
000170 e2 b4 69 3f 40 49 5b 3c a0 e7 2d 3d ad a0 19 3f
       0.9129163 0.013384163 0.042457223 0.60010797
000180 82 cd 8c 3e c5 0b 5f 3f ae 27 f7 3e 46 a2 87 3e
       0.2750054 0.87127334 0.4827246 0.26490992
000190 eb 14 00 3f c0 ba d7 3e cc 8f d7 3e 62 a6 e3 3e
       0.5003192 0.42134666 0.42101896 0.44462878
0001a0 d8 e8 2e 3e a2 a7 ae 3e a0 6f 92 3c 5c 63 36 3e
       0.1708101 0.3411227 0.017875493 0.1781134
0001b0 01 63 09 3f 87 dd 53 3f be 53 f4 3e 75 e6 63 3f
       0.5366669 0.827599 0.4772014 0.89023525
0001c0 30 6a d7 3d da c2 2d 3f e8 5b 1e 3f 82 ad 98 3e
       0.105183005 0.67875445 0.6185899 0.29819876
0001d0 8e 97 34 3f d0 04 3d 3e fa f8 08 3f 5d 99 2b 3f
       0.70543754 0.18458867 0.5350491 0.6703089
0001e0 68 1b 89 3e 28 3a 17 3e e2 1a 52 3f 38 85 c5 3d
       0.26778722 0.14768279 0.8207227 0.0964455
0001f0 43 4c 7e 3f 70 4b a3 3e 36 f2 d7 3e 40 ea 6f 3e
       0.99335116 0.31893492 0.4217698 0.23429203

bn1.bias f4 [128]
000000 00 00 00 00 00 00 00 00 00 00 00 00 00 00 00 00
       0.0 0.0 0.0 0.0
000010 00 00 00 00 00 00 00 00 00 00 00 00 00 00 00 00
       0.0 0.0 0.0 0.0
000020 00 00 00 00 00 00 00 00 00 00 00 00 00 00 00 00
       0.0 0.0 0.0 0.0
000030 00 00 00 00 00 00 00 00 00 00 00 00 00 00 00 00
       0.0 0.0 0.0 0.0
000040 00 00 00 00 00 00 00 00 00 00 00 00 00 00 00 00
       0.0 0.0 0.0 0.0
000050 00 00 00 00 00 00 00 00 00 00 00 00 00 00 00 00
       0.0 0.0 0.0 0.0
000060 00 00 00 00 00 00 00 00 00 00 00 00 00 00 00 00
       0.0 0.0 0.0 0.0
000070 00 00 00 00 00 00 00 00 00 00 00 00 00 00 00 00
       0.0 0.0 0.0 0.0
000080 00 00 00 00 00 00 00 00 00 00 00 00 00 00 00 00
       0.0 0.0 0.0 0.0
000090 00 00 00 00 00 00 00 00 00 00 00 00 00 00 00 00
       0.0 0.0 0.0 0.0
0000a0 00 00 00 00 00 00 00 00 00 00 00 00 00 00 00 00
       0.0 0.0 0.0 0.0
0000b0 00 00 00 00 00 00 00 00 00 00 00 00 00 00 00 00
       0.0 0.0 0.0 0.0
0000c0 00 00 00 00 00 00 00 00 00 00 00 00 00 00 00 00
       0.0 0.0 0.0 0.0
0000d0 00 00 00 00 00 00 00 00 00 00 00 00 00 00 00 00
       0.0 0.0 0.0 0.0
0000e0 00 00 00 00 00 00 00 00 00 00 00 00 00 00 00 00
       0.0 0.0 0.0 0.0
0000f0 00 00 00 00 00 00 00 00 00 00 00 00 00 00 00 00
       0.0 0.0 0.0 0.0
000100 00 00 00 00 00 00 00 00 00 00 00 00 00 00 00 00
       0.0 0.0 0.0 0.0
000110 00 00 00 00 00 00 00 00 00 00 00 00 00 00 00 00
       0.0 0.0 0.0 0.0
000120 00 00 00 00 00 00 00 00 00 00 00 00 00 00 00 00
       0.0 0.0 0.0 0.0
000130 00 00 00 00 00 00 00 00 00 00 00 00 00 00 00 00
       0.0 0.0 0.0 0.0
000140 00 00 00 00 00 00 00 00 00 00 00 00 00 00 00 00
       0.0 0.0 0.0 0.0
000150 00 00 00 00 00 00 00 00 00 00 00 00 00 00 00 00
       0.0 0.0 0.0 0.0
000160 00 00 00 00 00 00 00 00 00 00 00 00 00 00 00 00
       0.0 0.0 0.0 0.0
000170 00 00 00 00 00 00 00 00 00 00 00 00 00 00 00 00
       0.0 0.0 0.0 0.0
000180 00 00 00 00 00 00 00 00 00 00 00 00 00 00 00 00
       0.0 0.0 0.0 0.0
000190 00 00 00 00 00 00 00 00 00 00 00 00 00 00 00 00
       0.0 0.0 0.0 0.0
0001a0 00 00 00 00 00 00 00 00 00 00 00 00 00 00 00 00
       0.0 0.0 0.0 0.0
0001b0 00 00 00 00 00 00 00 00 00 00 00 00 00 00 00 00
       0.0 0.0 0.0 0.0
0001c0 00 00 00 00 00 00 00 00 00 00 00 00 00 00 00 00
       0.0 0.0 0.0 0.0
0001d0 00 00 00 00 00 00 00 00 00 00 00 00 00 00 00 00
       0.0 0.0 0.0 0.0
0001e0 00 00 00 00 00 00 00 00 00 00 00 00 00 00 00 00
       0.0 0.0 0.0 0.0
0001f0 00 00 00 00 00 00 00 00 00 00 00 00 00 00 00 00
       0.0 0.0 0.0 0.0

bn1.running_mean f4 [128]
000000 00 00 00 00 00 00 00 00 00 00 00 00 00 00 00 00
       0.0 0.0 0.0 0.0
000010 00 00 00 00 00 00 00 00 00 00 00 00 00 00 00 00
       0.0 0.0 0.0 0.0
000020 00 00 00 00 00 00 00 00 00 00 00 00 00 00 00 00
       0.0 0.0 0.0 0.0
000030 00 00 00 00 00 00 00 00 00 00 00 00 00 00 00 00
       0.0 0.0 0.0 0.0
000040 00 00 00 00 00 00 00 00 00 00 00 00 00 00 00 00
       0.0 0.0 0.0 0.0
000050 00 00 00 00 00 00 00 00 00 00 00 00 00 00 00 00
       0.0 0.0 0.0 0.0
000060 00 00 00 00 00 00 00 00 00 00 00 00 00 00 00 00
       0.0 0.0 0.0 0.0
000070 00 00 00 00 00 00 00 00 00 00 00 00 00 00 00 00
       0.0 0.0 0.0 0.0
000080 00 00 00 00 00 00 00 00 00 00 00 00 00 00 00 00
       0.0 0.0 0.0 0.0
000090 00 00 00 00 00 00 00 00 00 00 00 00 00 00 00 00
       0.0 0.0 0.0 0.0
0000a0 00 00 00 00 00 00 00 00 00 00 00 00 00 00 00 00
       0.0 0.0 0.0 0.0
0000b0 00 00 00 00 00 00 00 00 00 00 00 00 00 00 00 00
       0.0 0.0 0.0 0.0
0000c0 00 00 00 00 00 00 00 00 00 00 00 00 00 00 00 00
       0.0 0.0 0.0 0.0
0000d0 00 00 00 00 00 00 00 00 00 00 00 00 00 00 00 00
       0.0 0.0 0.0 0.0
0000e0 00 00 00 00 00 00 00 00 00 00 00 00 00 00 00 00
       0.0 0.0 0.0 0.0
0000f0 00 00 00 00 00 00 00 00 00 00 00 00 00 00 00 00
       0.0 0.0 0.0 0.0
000100 00 00 00 00 00 00 00 00 00 00 00 00 00 00 00 00
       0.0 0.0 0.0 0.0
000110 00 00 00 00 00 00 00 00 00 00 00 00 00 00 00 00
       0.0 0.0 0.0 0.0
000120 00 00 00 00 00 00 00 00 00 00 00 00 00 00 00 00
       0.0 0.0 0.0 0.0
000130 00 00 00 00 00 00 00 00 00 00 00 00 00 00 00 00
       0.0 0.0 0.0 0.0
000140 00 00 00 00 00 00 00 00 00 00 00 00 00 00 00 00
       0.0 0.0 0.0 0.0
000150 00 00 00 00 00 00 00 00 00 00 00 00 00 00 00 00
       0.0 0.0 0.0 0.0
000160 00 00 00 00 00 00 00 00 00 00 00 00 00 00 00 00
       0.0 0.0 0.0 0.0
000170 00 00 00 00 00 00 00 00 00 00 00 00 00 00 00 00
       0.0 0.0 0.0 0.0
000180 00 00 00 00 00 00 00 00 00 00 00 00 00 00 00 00
       0.0 0.0 0.0 0.0
000190 00 00 00 00 00 00 00 00 00 00 00 00 00 00 00 00
       0.0 0.0 0.0 0.0
0001a0 00 00 00 00 00 00 00 00 00 00 00 00 00 00 00 00
       0.0 0.0 0.0 0.0
0001b0 00 00 00 00 00 00 00 00 00 00 00 00 00 00 00 00
       0.0 0.0 0.0 0.0
0001c0 00 00 00 00 00 00 00 00 00 00 00 00 00 00 00 00
       0.0 0.0 0.0 0.0
0001d0 00 00 00 00 00 00 00 00 00 00 00 00 00 00 00 00
       0.0 0.0 0.0 0.0
0001e0 00 00 00 00 00 00 00 00 00 00 00 00 00 00 00 00
       0.0 0.0 0.0 0.0
0001f0 00 00 00 00 00 00 00 00 00 00 00 00 00 00 00 00
       0.0 0.0 0.0 0.0

bn1.running_var f4 [128]
000000 00 00 80 3f 00 00 80 3f 00 00 80 3f 00 00 80 3f
       1.0 1.0 1.0 1.0
000010 00 00 80 3f 00 00 80 3f 00 00 80 3f 00 00 80 3f
       1.0 1.0 1.0 1.0
000020 00 00 80 3f 00 00 80 3f 00 00 80 3f 00 00 80 3f
       1.0 1.0 1.0 1.0
000030 00 00 80 3f 00 00 80 3f 00 00 80 3f 00 00 80 3f
       1.0 1.0 1.0 1.0
000040 00 00 80 3f 00 00 80 3f 00 00 80 3f 00 00 80 3f
       1.0 1.0 1.0 1.0
000050 00 00 80 3f 00 00 80 3f 00 00 80 3f 00 00 80 3f
       1.0 1.0 1.0 1.0
000060 00 00 80 3f 00 00 80 3f 00 00 80 3f 00 00 80 3f
       1.0 1.0 1.0 1.0
000070 00 00 80 3f 00 00 80 3f 00 00 80 3f 00 00 80 3f
       1.0 1.0 1.0 1.0
000080 00 00 80 3f 00 00 80 3f 00 00 80 3f 00 00 80 3f
       1.0 1.0 1.0 1.0
000090 00 00 80 3f 00 00 80 3f 00 00 80 3f 00 00 80 3f
       1.0 1.0 1.0 1.0
0000a0 00 00 80 3f 00 00 80 3f 00 00 80 3f 00 00 80 3f
       1.0 1.0 1.0 1.0
0000b0 00 00 80 3f 00 00 80 3f 00 00 80 3f 00 00 80 3f
       1.0 1.0 1.0 1.0
0000c0 00 00 80 3f 00 00 80 3f 00 00 80 3f 00 00 80 3f
       1.0 1.0 1.0 1.0
0000d0 00 00 80 3f 00 00 80 3f 00 00 80 3f 00 00 80 3f
       1.0 1.0 1.0 1.0
0000e0 00 00 80 3f 00 00 80 3f 00 00 80 3f 00 00 80 3f
       1.0 1.0 1.0 1.0
0000f0 00 00 80 3f 00 00 80 3f 00 00 80 3f 00 00 80 3f
       1.0 1.0 1.0 1.0
000100 00 00 80 3f 00 00 80 3f 00 00 80 3f 00 00 80 3f
       1.0 1.0 1.0 1.0
000110 00 00 80 3f 00 00 80 3f 00 00 80 3f 00 00 80 3f
       1.0 1.0 1.0 1.0
000120 00 00 80 3f 00 00 80 3f 00 00 80 3f 00 00 80 3f
       1.0 1.0 1.0 1.0
000130 00 00 80 3f 00 00 80 3f 00 00 80 3f 00 00 80 3f
       1.0 1.0 1.0 1.0
000140 00 00 80 3f 00 00 80 3f 00 00 80 3f 00 00 80 3f
       1.0 1.0 1.0 1.0
000150 00 00 80 3f 00 00 80 3f 00 00 80 3f 00 00 80 3f
       1.0 1.0 1.0 1.0
000160 00 00 80 3f 00 00 80 3f 00 00 80 3f 00 00 80 3f
       1.0 1.0 1.0 1.0
000170 00 00 80 3f 00 00 80 3f 00 00 80 3f 00 00 80 3f
       1.0 1.0 1.0 1.0
000180 00 00 80 3f 00 00 80 3f 00 00 80 3f 00 00 80 3f
       1.0 1.0 1.0 1.0
000190 00 00 80 3f 00 00 80 3f 00 00 80 3f 00 00 80 3f
       1.0 1.0 1.0 1.0
0001a0 00 00 80 3f 00 00 80 3f 00 00 80 3f 00 00 80 3f
       1.0 1.0 1.0 1.0
0001b0 00 00 80 3f 00 00 80 3f 00 00 80 3f 00 00 80 3f
       1.0 1.0 1.0 1.0
0001c0 00 00 80 3f 00 00 80 3f 00 00 80 3f 00 00 80 3f
       1.0 1.0 1.0 1.0
0001d0 00 00 80 3f 00 00 80 3f 00 00 80 3f 00 00 80 3f
       1.0 1.0 1.0 1.0
0001e0 00 00 80 3f 00 00 80 3f 00 00 80 3f 00 00 80 3f
       1.0 1.0 1.0 1.0
0001f0 00 00 80 3f 00 00 80 3f 00 00 80 3f 00 00 80 3f
       1.0 1.0 1.0 1.0

fc2.weight f4 [64, 130]
000000 e9 a9 51 3d a2 23 8c 3e 2f e2 2b 3e 76 57 cb bd
       0.05118743 0.27370936 0.16785501 -0.09928791
000010 65 3a 0a bf e6 0c e3 3e 6e e5 f9 bd 22 b7 ec be
       -0.53995353 0.44345778 -0.12201963 -0.4623347
000020 5b 11 19 bf 04 5e e7 3e 4b 8d 58 3d b0 19 95 3e
       -0.5979211 0.45188916 0.052869122 0.2912116
000030 0c fb d8 3e 69 c6 36 3e 95 5e 4a 3e 50 19 69 be
       0.42379034 0.17849125 0.19762643 -0.22763562
000040 4c 15 54 3e 13 6c 1d bd 12 b2 fb be c2 f7 3c bf
       0.20711249 -0.038433146 -0.49159294 -0.7381555
000050 aa 7a f6 be c7 35 04 bf 0c 9a 18 be 40 e0 47 3e
       -0.4814046 -0.5164456 -0.14902514 0.19519138
000060 7e 17 24 3e 33 9d 38 be be a2 91 be 31 a7 63 bc
       0.16024587 -0.18028717 -0.28444475 -0.013894842
000070 67 fa 15 bf 17 8b 88 3e bc 32 23 3c 24 aa 2e 3e
       -0.5858521 0.26668617 0.0099608265 0.17057091
000080 7a 7f c3 bd 99 26 d7 ba bf 62 81 bd a7 e3 7e bd
       -0.095457986 -0.0016414701 -0.063176624 -0.062228825
000090 a4 3a 1a be ac f7 b6 bf e4 45 e1 bd 52 04 80 be
       -0.15061432 -1.4294333 -0.10999659 -0.25003296
0000a0 5c 43 17 be 3f 15 43 3e 80 07 b9 bd fe c0 ac bf
       -0.1477179 0.19051073 -0.09034634 -1.3496397
0000b0 98 8c 04 3e 75 d5 09 3f 0a 4c 54 3e 0e 46 9f 3e
       0.12944257 0.53841335 0.20732132 0.31108135
0000c0 0c 83 08 be f1 33 81 be fa a7 1d bf 72 cb 2a 3e
       -0.1333124 -0.2523494 -0.61584437 0.1667917
0000d0 3c 09 a4 be d3 7e 17 3f 2c 79 94 3d f9 22 d7 bd
       -0.32038295 0.59177893 0.07249674 -0.105047174
0000e0 6b f2 a2 3d b1 19 1a 3d 97 31 21 bf f1 5a 17 3e
       0.07956394 0.037622157 -0.62966293 0.14780785
0000f0 68 20 26 bf 85 d0 3d be 18 4e e7 3e 4d df 18 be
       -0.648932 -0.18536575 0.45176768 -0.14928932
000100 04 0a 4a 3d 03 9b c2 3d 44 bb ee 3e de 70 97 3e
       0.049325958 0.095022224 0.46627247 0.29578298
000110 b3 a1 e0 3d 55 10 db be d4 4c 19 be a3 34 d9 3d
       0.10968342 -0.42785898 -0.14970714 0.10605743
000120 09 4e 32 3b 93 ee e0 be 1b e8 85 bd 7d 6c 23 bf
       0.0027207157 -0.43932018 -0.06538411 -0.63837415
000130 15 7e 46 bf 05 f3 84 be 4c 9a 87 be 7f b6 d8 3e
       -0.77536136 -0.2596666 -0.26484907 0.42326733
000140 dc 3a b5 3e bd 65 2a 3d f1 07 b4 be 0a b1 27 be
       0.3539647 0.04160093 -0.3516231 -0.16376129
000150 9d 05 68 bc 63 05 19 3e d1 34 91 bd 42 da 0b bf
       -0.014161495 0.14943461 -0.07090152 -0.5462991
000160 73 6b dd 3c de dd 12 bf c8 f1 87 3e 58 8e 24 be
       0.027028775 -0.5736979 0.26551652 -0.16069925
000170 e1 95 63 bf dc a3 18 bf c8 27 90 bd 1d 79 08 3e
       -0.8890057 -0.5962503 -0.07038838 0.13327451
000180 b6 f4 0b bd 26 1e 16 3d e5 40 ab be c8 f0 8e 3e
       -0.03416892 0.036649846 -0.33447948 0.27918077
000190 76 50 57 bf c7 bc 68 3f 73 63 7a be 45 94 f2 3c
       -0.8410715 0.9091305 -0.24452 0.029611716
0001a0 e5 70 10 3e 65 16 30 3e e2 0d 82 bd 86 77 4d 3e
       0.14105566 0.17196043 -0.06350304 0.20065126
0001b0 16 bb 4c bd ca 9a 68 be 12 dd 2e bf c1 81 10 bf
       -0.049983107 -0.22715297 -0.68306077 -0.5644799
0001c0 59 0e b1 3d f9 bc a6 bd f8 5b 03 bf 85 9f a6 bf
       0.08645315 -0.081415124 -0.5131221 -1.3017431
0001d0 38 09 45 3e fc f7 4a 3b 41 37 2c 3e 8e 0e b7 3e
       0.19241798 0.0030970564 0.16817953 0.35753292
0001e0 44 5b cb be 79 5c c0 be 4d 62 2f 3f ab 7c 5f 3d
       -0.39718068 -0.3757055 0.6850937 0.054562252
0001f0 72 9b 99 3d 88 ad 14 3e 23 29 8d bc 13 be 91 3e
       0.07500352 0.14519322 -0.01723153 0.28465328
000200 fa bb 69 3e 1f 6c a9 bc e0 90 9d be 6e 0a 89 3e
       0.22825614 -0.020681439 -0.30774593 0.2676577
000210 55 fc 16 3e d9 0d c3 be cb ac 3f bf 0e 18 d2 3e
       0.14744695 -0.38096502 -0.74873036 0.41033977
000220 2e 62 ee bd 3a 86 ac 3d 00 67 d2 bd 6e 5d 8c 3d
       -0.1163982 0.08424039 -0.10273552 0.06853758
000230 9e bf 84 be 90 44 3e bf 23 22 ec 3e c8 56 b9 bf
       -0.25927442 -0.7432337 0.46119794 -1.4479609
000240 ca 27 41 3c 6e 79 62 bc 3e 2c 7f be d0 8c 93 bd
       0.011789272 -0.013822896 -0.24919221 -0.07204592
000250 06 df 16 bf 7a ba ee bd af c5 37 3e 4e fc 96 3c
       -0.58934057 -0.11656661 0.17946504 0.018430855
000260 17 d8 96 bf d7 5a 92 be e0 70 d4 be 57 f6 90 bd
       -1.1784695 -0.2858493 -0.41492367 -0.070782356
000270 d5 65 60 bf 50 cd 2d 3e 46 d9 5a be f2 48 df be
       -0.87655383 0.16972852 -0.21371946 -0.4361034
000280 ad 6d 94 bf c5 99 9f bd ce b1 8a 3e 44 22 ed ba
       -1.159597 -0.07793001 0.2708878 -0.0018091877
000290 9a 4d 0e be 4e cf e5 be a2 06 29 bf ba 45 d6 bd
       -0.1389679 -0.44884723 -0.66025746 -0.10462518
0002a0 f5 44 d1 bd 07 b3 dd 3e cc 97 aa 3e 2e 34 5d 3e
       -0.10218231 0.4330065 0.33318937 0.21601936
0002b0 08 70 f7 bc 91 42 80 3d 59 a0 19 3d 1c df 8d 3e
       -0.030204788 0.062626965 0.037506435 0.2770928
0002c0 85 bb 96 3e 12 d7 55 be a8 01 14 be 3a 3a 94 bf
       0.2943994 -0.20882824 -0.14453757 -1.1580269
0002d0 4a e8 ab bd 53 36 21 be 93 4a 93 be f6 c6 0f 3d
       -0.08393915 -0.1574338 -0.28767833 0.035101853
0002e0 4f 0c b4 3d c8 9d 8d bd 54 7b 94 3e 7a 00 1f be
       0.0879141 -0.0691486 0.29000342 -0.15527526
0002f0 34 63 35 3e 06 cc 63 3e ee 9c 90 3e af 4b 20 be
       0.17713624 0.22245798 0.28244728 -0.15653871
000300 d1 74 07 3d 5d 10 cf be 7c ed 03 3e 98 05 40 3e
       0.03307039 -0.40442172 0.12883562 0.18752134
000310 68 11 d5 3d 90 e8 10 bd 18 0a be bd 1c 4a 10 bd
       0.104037106 -0.03537804 -0.09279269 -0.035226926
000320 fd 04 eb bd 5b e8 52 be e0 22 9f bd 22 4a da be
       -0.11475561 -0.20596449 -0.07770324 -0.42634684
000330 e9 f8 b4 3b 32 6a 1c 3e 60 47 09 3d 57 b1 9d 3e
       0.0055228365 0.15274885 0.033515334 0.30799362
000340 10 0e 69 bf f1 37 63 3e 7c 65 01 be ed 70 51 bd
       -0.9103708 0.22189309 -0.1263637 -0.051133085
000350 85 6c 1b bf 77 90 08 3c 66 13 8d bd a7 d1 8e be
       -0.6071246 0.008335224 -0.068884656 -0.27894327
000360 53 df 26 3e c0 61 8b 3e 7d ab c3 3d 8d 35 ae be
       0.16296129 0.27223015 0.09554193 -0.3402523
000370 64 91 3f bd 52 ec 67 bd 0f 09 02 be f5 e4 b5 be
       -0.046769515 -0.056621857 -0.12698768 -0.35526243
000380 47 a7 29 3f 62 10 01 3e 66 90 6e bd c7 83 ce 3d
       0.6627087 0.12603906 -0.058243178 0.10083728
000390 9e 1f 05 be cb c1 08 bf 92 b4 3f be 1c 24 a2 3d
       -0.13000342 -0.53420705 -0.18721226 0.079170436
0003a0 07 93 ed be f1 59 05 3e 24 e1 c2 3e b1 ef 2c bf
       -0.46401235 0.13022591 0.38062394 -0.6755324
0003b0 ad ff b3 3e 52 1b 94 be 45 d9 76 bd 83 68 d8 3d
       0.35156003 -0.28927094 -0.060265798 0.10566809
0003c0 7e 9c b2 3d 9b 2f 03 3e e2 00 8b bd f8 e4 6e be
       0.08721255 0.12811129 -0.06787278 -0.23329532
0003d0 b5 52 02 3e bb c1 38 3e fa 73 c2 bd ad 35 9f 3c
       0.12726863 0.18042652 -0.09494777 0.019434774
0003e0 52 51 21 be 70 3d 7d bf 32 f6 8d 3d f5 23 9f 3d
       -0.15753677 -0.9892187 0.06931724 0.0777053
0003f0 a9 59 8b be c4 a9 9f 3e 75 1d 80 be 52 2e b0 3d
       -0.27216843 0.31184208 -0.25022474 0.08602585

fc2.bias f4 [64]
000000 b4 2b 4f bd 98 7a 05 3e 17 f9 44 be b5 ef 11 bd
       -0.050578788 0.13035047 -0.19235645 -0.035628993
000010 5b 8d a9 bc 81 d1 aa bc 38 1d 2c be 6b 7f 14 be
       -0.020697286 -0.020851852 -0.16808021 -0.14501731
000020 ac 1a 44 3d 9e ea 3b bc c3 e0 d7 bc ee 6a ba bd
       0.047877 -0.011469511 -0.026352292 -0.091024265
000030 93 d6 dd 3c f6 c2 82 bc c4 fc 63 3e 81 71 17 be
       0.027079856 -0.015962105 0.22264391 -0.14789392
000040 df a4 01 3e 77 38 09 3d aa 86 d6 bd 48 aa cb 3d
       0.1266055 0.033501115 -0.10474904 0.09944588
000050 6c 7d ee 3c bc be 77 bd b0 01 2b 3d e2 95 89 be
       0.02911254 -0.060484633 0.041749656 -0.26872164
000060 56 2f 6b be c2 0d 42 bc fa 35 13 3e d7 20 33 3e
       -0.22967276 -0.0118441 0.14376059 0.17492996
000070 9b 83 c9 3d 49 23 38 bd 37 f9 bb 3d 52 ab 88 3a
       0.09839555 -0.044955526 0.09178393 0.0010427034
000080 9b 2e 22 3d 96 0d f4 bd c4 60 d8 bd 95 82 bc bd
       0.039595228 -0.11916654 -0.105653316 -0.09204594
000090 2c 41 14 be f5 ff 83 bd 1d f7 28 3c 2f 69 84 3d
       -0.14477986 -0.06445304 0.010312823 0.06465375
0000a0 08 9e ca bd c6 ea 7a 3d 8d 3f 40 bd f4 5c d8 bd
       -0.09893423 0.061259054 -0.046935607 -0.105646044
0000b0 78 24 80 bd 96 07 41 3e 08 1b 5e 3e 13 15 c5 bb
       -0.06256956 0.1885055 0.21689999 -0.006014475
0000c0 d3 ea 82 3d 02 21 b6 bd 20 15 91 3b ba 68 c5 bd
       0.063924454 -0.088930145 0.004427567 -0.09639116
0000d0 51 f5 0f 3d 31 00 3b be f6 59 97 3d 18 12 4a bc
       0.03514606 -0.18261792 0.073902056 -0.012333415
0000e0 91 7e 97 bd 84 2d 96 be 31 63 39 3a c8 a3 33 be
       -0.073971875 -0.293316 0.00070719706 -0.17542946
0000f0 0f e2 22 3e de e8 3f bc 7b e3 20 3e f9 9b 9e bd
       0.15906547 -0.011713235 0.15711777 -0.07744593

bn2.weight f4 [64]
000000 b8 ad 9c 3d 00 8c a3 3d 2d 6f 1d 3f 70 f5 98 3e
       0.07650322 0.07985687 0.61497766 0.29874754
000010 ce 48 f0 3e 30 8d 35 3e 9a 64 23 3f f3 88 6c 3f
       0.46930546 0.1772964 0.6382538 0.9239647
000020 48 29 70 3e 6f bb 0a 3f c0 af e7 3e 16 27 e2 3e
       0.23453248 0.5419225 0.45251274 0.44170445
000030 20 c6 9a 3c 28 2d d8 3d 8e f2 b9 3e 16 f0 3e 3f
       0.018893301 0.10555488 0.36317867 0.7458509
000040 6e fa 05 3f b0 7a 47 3d a2 c8 76 3f a8 76 96 3e
       0.5233525 0.04870099 0.9639989 0.29387403
000050 78 72 aa 3d 52 b5 07 3f a4 02 65 3e 83 ba 71 3f
       0.083226144 0.5301105 0.22364289 0.9442522
000060 2a 71 9c 3e f3 b8 0e 3f 18 3b fd 3d a0 5c c2 3c
       0.30555087 0.5575096 0.12364787 0.023725808
000070 32 84 d3 3e a0 b6 72 3f 1b e1 5d 3f da a6 0d 3f
       0.41311795 0.94809914 0.8667161 0.5533272
000080 7c 54 20 3f a9 e6 21 3f 4e 2f 04 3f 18 c4 ba 3e
       0.6262891 0.63242584 0.5163468 0.36477733
000090 40 ee 99 3e 88 39 0a 3e a4 59 22 3e 09 4e 1d 3f
       0.30064583 0.13498509 0.15854508 0.614472
0000a0 10 c4 6d 3e 6d 9e 00 3f 2d 06 0a 3f 78 97 1d 3f
       0.23219323 0.5024174 0.53915673 0.6155925
0000b0 a0 68 2f 3e 7a fe 68 3f ef 72 5d 3f 73 e6 7a 3f
       0.17129755 0.910133 0.865035 0.9800789
0000c0 e0 5e 4e 3e 48 d4 79 3e d5 7e 64 3f 35 08 1c 3f
       0.2015338 0.24397385 0.8925603 0.6095002
0000d0 40 65 0f 3c 7d 53 0c 3f b6 ef 19 3f 14 10 e7 3e
       0.008752167 0.54814893 0.60131395 0.45129454
0000e0 2c 0f b6 3e a0 43 15 3d 00 9a 86 3a 01 10 4a 3f
       0.3555845 0.036441445 0.0010269284 0.7893067
0000f0 02 52 8c 3e b8 f5 5a 3f 50 ce 59 3f 8c b5 73 3e
       0.27406317 0.8553119 0.8508043 0.23799723

bn2.bias f4 [64]
000000 00 00 00 00 00 00 00 00 00 00 00 00 00 00 00 00
       0.0 0.0 0.0 0.0
000010 00 00 00 00 00 00 00 00 00 00 00 00 00 00 00 00
       0.0 0.0 0.0 0.0
000020 00 00 00 00 00 00 00 00 00 00 00 00 00 00 00 00
       0.0 0.0 0.0 0.0
000030 00 00 00 00 00 00 00 00 00 00 00 00 00 00 00 00
       0.0 0.0 0.0 0.0
000040 00 00 00 00 00 00 00 00 00 00 00 00 00 00 00 00
       0.0 0.0 0.0 0.0
000050 00 00 00 00 00 00 00 00 00 00 00 00 00 00 00 00
       0.0 0.0 0.0 0.0
000060 00 00 00 00 00 00 00 00 00 00 00 00 00 00 00 00
       0.0 0.0 0.0 0.0
000070 00 00 00 00 00 00 00 00 00 00 00 00 00 00 00 00
       0.0 0.0 0.0 0.0
000080 00 00 00 00 00 00 00 00 00 00 00 00 00 00 00 00
       0.0 0.0 0.0 0.0
000090 00 00 00 00 00 00 00 00 00 00 00 00 00 00 00 00
       0.0 0.0 0.0 0.0
0000a0 00 00 00 00 00 00 00 00 00 00 00 00 00 00 00 00
       0.0 0.0 0.0 0.0
0000b0 00 00 00 00 00 00 00 00 00 00 00 00 00 00 00 00
       0.0 0.0 0.0 0.0
0000c0 00 00 00 00 00 00 00 00 00 00 00 00 00 00 00 00
       0.0 0.0 0.0 0.0
0000d0 00 00 00 00 00 00 00 00 00 00 00 00 00 00 00 00
       0.0 0.0 0.0 0.0
0000e0 00 00 00 00 00 00 00 00 00 00 00 00 00 00 00 00
       0.0 0.0 0.0 0.0
0000f0 00 00 00 00 00 00 00 00 00 00 00 00 00 00 00 00
       0.0 0.0 0.0 0.0

bn2.running_mean f4 [64]
000000 00 00 00 00 00 00 00 00 00 00 00 00 00 00 00 00
       0.0 0.0 0.0 0.0
000010 00 00 00 00 00 00 00 00 00 00 00 00 00 00 00 00
       0.0 0.0 0.0 0.0
000020 00 00 00 00 00 00 00 00 00 00 00 00 00 00 00 00
       0.0 0.0 0.0 0.0
000030 00 00 00 00 00 00 00 00 00 00 00 00 00 00 00 00
       0.0 0.0 0.0 0.0
000040 00 00 00 00 00 00 00 00 00 00 00 00 00 00 00 00
       0.0 0.0 0.0 0.0
000050 00 00 00 00 00 00 00 00 00 00 00 00 00 00 00 00
       0.0 0.0 0.0 0.0
000060 00 00 00 00 00 00 00 00 00 00 00 00 00 00 00 00
       0.0 0.0 0.0 0.0
000070 00 00 00 00 00 00 00 00 00 00 00 00 00 00 00 00
       0.0 0.0 0.0 0.0
000080 00 00 00 00 00 00 00 00 00 00 00 00 00 00 00 00
       0.0 0.0 0.0 0.0
000090 00 00 00 00 00 00 00 00 00 00 00 00 00 00 00 00
       0.0 0.0 0.0 0.0
0000a0 00 00 00 00 00 00 00 00 00 00 00 00 00 00 00 00
       0.0 0.0 0.0 0.0
0000b0 00 00 00 00 00 00 00 00 00 00 00 00 00 00 00 00
       0.0 0.0 0.0 0.0
0000c0 00 00 00 00 00 00 00 00 00 00 00 00 00 00 00 00
       0.0 0.0 0.0 0.0
0000d0 00 00 00 00 00 00 00 00 00 00 00 00 00 00 00 00
       0.0 0.0 0.0 0.0
0000e0 00 00 00 00 00 00 00 00 00 00 00 00 00 00 00 00
       0.0 0.0 0.0 0.0
0000f0 00 00 00 00 00 00 00 00 00 00 00 00 00 00 00 00
       0.0 0.0 0.0 0.0

bn2.running_var f4 [64]
000000 00 00 80 3f 00 00 80 3f 00 00 80 3f 00 00 80 3f
       1.0 1.0 1.0 1.0
000010 00 00 80 3f 00 00 80 3f 00 00 80 3f 00 00 80 3f
       1.0 1.0 1.0 1.0
000020 00 00 80 3f 00 00 80 3f 00 00 80 3f 00 00 80 3f
       1.0 1.0 1.0 1.0
000030 00 00 80 3f 00 00 80 3f 00 00 80 3f 00 00 80 3f
       1.0 1.0 1.0 1.0
000040 00 00 80 3f 00 00 80 3f 00 00 80 3f 00 00 80 3f
       1.0 1.0 1.0 1.0
000050 00 00 80 3f 00 00 80 3f 00 00 80 3f 00 00 80 3f
       1.0 1.0 1.0 1.0
000060 00 00 80 3f 00 00 80 3f 00 00 80 3f 00 00 80 3f
       1.0 1.0 1.0 1.0
000070 00 00 80 3f 00 00 80 3f 00 00 80 3f 00 00 80 3f
       1.0 1.0 1.0 1.0
000080 00 00 80 3f 00 00 80 3f 00 00 80 3f 00 00 80 3f
       1.0 1.0 1.0 1.0
000090 00 00 80 3f 00 00 80 3f 00 00 80 3f 00 00 80 3f
       1.0 1.0 1.0 1.0
0000a0 00 00 80 3f 00 00 80 3f 00 00 80 3f 00 00 80 3f
       1.0 1.0 1.0 1.0
0000b0 00 00 80 3f 00 00 80 3f 00 00 80 3f 00 00 80 3f
       1.0 1.0 1.0 1.0
0000c0 00 00 80 3f 00 00 80 3f 00 00 80 3f 00 00 80 3f
       1.0 1.0 1.0 1.0
0000d0 00 00 80 3f 00 00 80 3f 00 00 80 3f 00 00 80 3f
       1.0 1.0 1.0 1.0
0000e0 00 00 80 3f 00 00 80 3f 00 00 80 3f 00 00 80 3f
       1.0 1.0 1.0 1.0
0000f0 00 00 80 3f 00 00 80 3f 00 00 80 3f 00 00 80 3f
       1.0 1.0 1.0 1.0

fc3.weight f4 [1, 64]
000000 b9 c8 65 be 78 83 0c be 48 60 06 be 9d b8 a1 3e
       -0.22439851 -0.13722026 -0.13122666 0.3158616
000010 12 0c 5c 3e 0a ef f2 be 9b 64 18 be fe 8e 07 3f
       0.2148898 -0.47447997 -0.14882128 0.52952564
000020 70 31 a8 be 9e 23 93 be 8e 3c b2 3d db 3d 4a 3e
       -0.32850218 -0.2873811 0.08702956 0.19750158
000030 be 1b 73 bd 02 e9 cb be b6 6c 91 bd f0 ab 1e 3e
       -0.05935263 -0.39826208 -0.07100813 0.15495276
000040 a9 f7 84 bd 0a af 87 3d bf 8b 03 3e 9c 45 80 bd
       -0.0649255 0.06625183 0.12846278 -0.06263277
000050 19 2e 1b 3e 6a 97 c4 bd 1a 24 fe bd 47 e5 2c be
       0.15154304 -0.095991924 -0.124092296 -0.16884337
000060 63 06 15 3e 02 5b 9c 3e 75 50 51 be 81 71 9c 3e
       0.14553218 0.30538183 -0.20440848 0.30555347
000070 eb 9b b0 3e d6 75 bc 3e 38 28 b7 3e 9c 22 a9 3d
       0.34493956 0.36808652 0.35772872 0.08258554
000080 ab 56 d7 bd 2b 56 bb be 4e 4a 6f be f0 8c c3 bb
       -0.105145775 -0.36589178 -0.23368189 -0.005967729
000090 7e 69 1d be f8 0e 5a bd 56 b4 8d bd 1f 14 07 3e
       -0.15372273 -0.05323693 -0.06919162 0.1319127
0000a0 c0 30 45 be 47 da db bd 5e be a0 3d 5d e3 85 3e
       -0.19256878 -0.107349925 0.0784881 0.26150027
0000b0 24 c9 c6 3d ff f2 22 3e 71 56 0f 3e e1 ba a7 3e
       0.09706333 0.15913008 0.13997819 0.32759765
0000c0 ed b0 09 be 63 c8 e8 bd 05 30 8c be fc 80 40 3e
       -0.13446398 -0.11366346 -0.27380386 0.18799204
0000d0 6d 60 39 3e da 30 c8 3e 99 31 f9 3d 57 1f 97 3d
       0.1810319 0.3909977 0.12167663 0.073790245
0000e0 da de 41 be cc b5 d9 3d 6d 09 70 be 26 c4 28 bd
       -0.18932667 0.10630378 -0.23441096 -0.041202687
0000f0 82 23 28 bd 04 0f 9b be 0d be 12 be 1b fc 9f 3e
       -0.041049488 -0.30284894 -0.14330311 0.3124703
