Project2_ContinuousControl/checkpoint_critic.pth (torch_old, 542604 bytes, 5 tensors)

fcs1.weight f4 [400, 33]
00000000: 22a5 2dbe b516 533e dabc da3d b7e9 863b
00000010: 8a0c dcbd 4f75 7bbf 5818 b73e 5e8d cd3d
00000020: bea3 213e 020a f6bd 7f0a 3c3e 1b68 9b3d
00000030: 81e8 47be e6bc dc3e 0006 9f3e addb 503e
00000040: 9de3 673e 7e24 143e 4a5b 5a3e 1111 a93d
00000050: af13 28be 9dbb d0bd 56fe 523e eef9 743e
00000060: 4437 543e c6ce 363d 825b 543c 6c92 713c
00000070: cc50 25b8 767f 9a3c 20b9 bbbc e487 793c
00000080: 2c66 37bf f2f8 823e 8984 3d3f 6045 b2bc
00000090: 8ab6 3bbc 5b76 9cbd 4fbb 8abe 8acc adbd
000000a0: a084 203d d083 e03e df92 c7bc 21df f0bd
000000b0: 9832 7d3e 0a8e 563c 774d 1bbf ca9c c8be
000000c0: 339c 2e3e a6bd 0f3e 3c17 4ebb c4a9 bcbe
000000d0: 0156 4c3e 9653 953d d122 aa3d ddf3 893d
000000e0: 36fa 19bd 35b6 2fbe 1a82 643e 1d21 e6bc
000000f0: 784a 923f d4d1 75be 50bf b4bc c8ea 95bf
00000100: d5e6 403d 5b4b c1bf 2030 683e 9153 223f
00000110: d6d4 fabe f200 86bd b4af 1f3c 4510 a2be
00000120: 11f9 45bf 8087 d63c 4708 823e 183a 56ba
00000130: ceb9 0d3d 58da c53d 76cb 053d 7ede 38be
00000140: d83b 2bbf a8fb 193f a45f ebbe 293e 3a3d
00000150: 53ea 34bd e2ac 03bb 331a 5e3d ea88 dabc
00000160: 475c 2dbd 20cd aebb 4f85 1bbe 6754 673c
00000170: 5fa4 ef3d 44ec c63e a64d 97be e834 233c
00000180: 2e59 b1be 3062 14bd 17d2 523e 9ef4 043f
00000190: 0fc9 133f e67c da3e a258 4c3d a04a ef3e
000001a0: cc56 d7bd 2c4a e13e 9706 8cbe 5ae2 2dbd
000001b0: 2d06 cc3e 118d 193e bf5d 453e 0c3d 4b3b
000001c0: 6f51 6ebb 4f92 573f 580c 6fbc 058d bebe
000001d0: b895 03bf a887 873d 0d87 603e 1ffd 2abe
000001e0: c028 06be 09c1 b53c 4bde 543e 0536 733e
000001f0: e357 d53c 9d19 fc3d 724f 5a3f 0ef6 1f3e
00000200: 3402 8abc 9afa 48bf 986c 40bc 2598 2abf
00000210: 045b 08bf 2307 0a3e 6ec6 c8bc 5f9e 0dbf
00000220: dea8 99be 67ca 4abd 2e70 023e b239 db3d
00000230: 6eaa 2b3f 0140 fcbd 6e30 3dbd cdcf dbbd
00000240: c660 0a3e cad0 053e 75ba 8a3e 775e be3e
00000250: a08f c5be 6401 f43e 05fa 98bb 04c3 5d3e
00000260: 7031 37be 7975 ca3d 6562 6fbd ccce 6a3e
00000270: 4aa0 52bd b9c3 90be be05 b03e f1cb 4e3f
00000280: edf2 f83d acad 0f3c 7fc7 58bf 6c52 8cbc
00000290: a610 393e af5a 993c b7db 083f 0c7d 433e
000002a0: 194b cfbe c269 733d d89f 6f3e 01fa 05bf
000002b0: c481 753e 2a2f ac3e 4241 323e f7db eb3d
000002c0: 91ae d23e 9404 1c3e 37de aebd 054b 0a3f
000002d0: 0274 95be 0d75 a9be 1d5d d0bd 676b 8cbe
000002e0: c19b e63d 568b be3e 2e48 603e df5f e5be
000002f0: 6cff 2e3d f7b5 88be 0d6a 28be d691 a5be
00000300: 4a54 a93f 2d31 47be fd04 1d3d 26e9 a4bf
00000310: fd75 0c3d 5f8b 33bf 2d6c 353d 9778 11be
00000320: a6ff 043f 66fa 41be 166b 1abf be5e 46be
00000330: b939 ac3d 33c4 a7be 336c 6cbe f72b 103f
00000340: a5fa 353d 855e b8be ff59 d23e 3aae 343e
00000350: d51e ea3e d1a5 b7be 648b f0be 183d 8fbe
00000360: f575 0abf 68ea 6f3d eb7c b0be 2515 413e
00000370: ecd7 1dbe 5aa4 8cbc ecb0 e83c ff8e c0be
00000380: f704 93bc 1d23 593f 20c0 1bbb 64d1 723c
00000390: d107 47bf e7cc dfbc f55c 25bf 60e5 e9bc
000003a0: dd8d 7e3f 2951 9f3e 6410 bdbe 4755 973e
000003b0: 5f9e 96be a948 cbbe 6fc0 ac3e 0715 83be
000003c0: e677 803d 7714 b9bc d029 a33e 0b6e 82bd
000003d0: cd17 05be 5ea0 d33e 3fe2 3b3e 3533 033f
000003e0: 28e4 b9bd fce9 4cbe e38c a8be 1621 e13d
000003f0: 354e 84bd 81f1 dc3c 5fc2 7dbe 8d63 cc3e
-0.16957524 0.20614131 0.10680552 0.0041172164 -0.10744579 -0.98225874 0.3576076 0.10036729
0.15785119 -0.120136276 0.18363379 0.07588216 -0.19522287 0.43112868 0.31059265 0.203963
0.22645421 0.14467046 0.21323887 0.08255208 -0.16413759 -0.101920344 0.20604834 0.23923466
0.20724207 0.04463079 0.01296127 0.014744382 -3.9414314e-05 0.018859606 -0.022915423 0.015230153
-0.71640277 0.25580555 0.7403036 -0.021761596 -0.011457095 -0.07639762 -0.2709603 -0.08486278
0.03918898 0.43850565 -0.024362026 -0.117613085 0.24726331 0.013095388 -0.60665077 -0.3918212
0.17051773 0.14037189 -0.0031446954 -0.3684827 0.19954683 0.072913334 0.08307422 0.06735966
-0.037592135 -0.1715935 0.22315255 -0.028091962 1.1428976 -0.24005824 -0.022063881 -1.1712275
0.04709514 -1.5101122 0.22674608 0.6340876 -0.48990506 -0.06543149 0.009746481 -0.31653038
-0.7733317 0.026187658 0.2539694 -0.0008172109 0.034601025 0.096607864 0.03266474 -0.18053624
-0.6688819 0.6014962 -0.45971406 0.045469437 -0.04416878 -0.002009206 0.054224204 -0.026676614
-0.04232433 -0.0053345114 -0.15187572 0.014119244 0.11701273 0.3885213 -0.2955143 0.009961344
-0.3463835 -0.03622645 0.20587955 0.51935756 0.57728666 0.42673415 0.049889214 0.46736622
-0.10514602 0.440019 -0.27348778 -0.042452194 0.39848462 0.14995219 0.19274043 0.0031011729
-0.0036364456 0.84207624 -0.014590345 -0.37216964 -0.5140033 0.06617671 0.21926518 -0.1669812
-0.13101482 0.022186773 0.20787923 0.23751076 0.026042884 0.12309573 0.85277474 0.15621206
-0.016846754 -0.7850739 -0.011744641 -0.66638404 -0.5326388 0.13479285 -0.024508681 -0.5531978
-0.30011648 -0.049509432 0.12738106 0.10704364 0.6705693 -0.12316895 -0.046188764 -0.10732994
0.13513479 0.13067928 0.2709538 0.37181446 -0.3858614 0.4765731 -0.0046684765 0.21656424
-0.17889953 0.098856874 -0.058443446 0.22930449 -0.051422395 -0.28274325 0.3437938 0.8077994
0.121557094 0.008769434 -0.84679407 -0.017129146 0.18072757 0.01872 0.5346026 0.1909067
-0.40486982 0.05942703 0.2340082 -0.523346 0.23975283 0.33629733 0.17407706 0.11516564
0.4114881 0.15236121 -0.08538478 0.5402072 -0.2919007 -0.33097115 -0.1017401 -0.2742569
0.112601765 0.3721568 0.21902534 -0.44799706 0.042724058 -0.26701328 -0.16446705 -0.32337826
1.3228848 -0.19452353 0.038334835 -1.2883651 0.03429221 -0.7013454 0.044292618 -0.14206158
0.5195259 -0.18943176 -0.6031965 -0.19372079 0.08409447 -0.32766876 -0.2308815 0.56317085
0.044428486 -0.36009613 0.41084287 0.17644587 0.45726648 -0.35868695 -0.46981347 -0.27976298
-0.5408624 0.058573157 -0.34470305 0.18855722 -0.15414399 -0.017168213 0.028404675 -0.37609097
-0.017946703 0.84819204 -0.0023765638 0.01482043 -0.777463 -0.027319385 -0.64594966 -0.028551757
0.99435216 0.31116608 -0.36926568 0.2955725 -0.29417703 -0.39703873 0.33740565 -0.2560198
0.06272869 -0.022592766 0.31867838 -0.06368645 -0.1299736 0.41333288 0.18348025 0.5125001
-0.090767205 -0.20011133 -0.32919988 0.10992639 -0.06460229 0.026970627 -0.24781178 0.399197

fcs1.bias f4 [400]
00000000: b1c2 8cbd 0208 9dbf c47d 52be 28c1 4dbf
00000010: a302 7cbf ea07 b8bf b01b 73bf daf0 9bbf
00000020: d620 8ebf 926c 123e 1cf0 8abf 3621 69bf
00000030: 9003 3fbf 5cd7 75bf b033 67bf 550f 2dbf
00000040: 06d8 83bf c83b 273f cc9d 34bf 9c37 c7bf
00000050: 88e1 44bf dcba 65bf 311b 52be 0a38 2abf
00000060: a99a f0bd e818 82bf e593 97bf 2844 4ebf
00000070: d6ec 3fbf 2eaf 32bf 5a09 aabf 7f92 2fbe
00000080: 14af 20bf 5f36 9fbf 3864 d0be 94fc 53bf
00000090: 8b46 5bbe 6372 babe ea3e 1fbf ebbb afbe
000000a0: 0fca 69bf dd16 8bbf 2442 a5bf 8568 a3bf
000000b0: 4456 ce3d d9c8 32bf 5a98 02bf 168f 91bf
000000c0: 5351 42bf d1d7 c4bf 4c3a 203e 0fac 263d
000000d0: 5ca8 2fbf 1f69 2fbf ec99 9cbf cb83 82bf
000000e0: 350d aebe 85e0 a8bf bada a4bf f55c 92bf
000000f0: 2bce 86bf 1b31 3cbf 7d8a acbe a22b 6fbf
00000100: 7e4d 96bf b4d1 cebf 117b 6cbf 405a bdbf
00000110: e728 90bf de6b 6dbf b2dd 81bf 3f05 6ebf
00000120: 0481 39bf f4c5 7cbf 9be5 bfbe f745 56bf
00000130: 1eac 95bf f5b1 11bf dcb8 63bf 5426 6ebf
00000140: 3401 1cbf b147 24bf 830d a9bf 9a09 cfbf
00000150: dead 46bf 3371 99bf 5e33 89bf 51d8 d3be
00000160: 5a5b 86be 7853 ebbd 6eb5 9ebf 0552 9f3e
00000170: 8cfc 32bf 2509 52bf df6a 2cbf a54e 5abf
00000180: f4d6 6dbf 7d87 a5bf b342 83be c147 5abf
00000190: eff2 1fbf dc8b 89bf 0d7e 89bf 2058 75bf
000001a0: 6536 9ebf 970e 88bf 9c73 48bf 65c9 4dbf
000001b0: 8504 8bbf cb8f 93bf d64a 72bf 487c 75bf
000001c0: dca4 59bf 02bc 38bf d381 fdbe fbf2 93bf
000001d0: f719 62bf b9da 0dbe d68c 54bf 553d 9bbf
000001e0: d1de a3bf 3db9 bcbf f2e1 06bf 8f6a 66bf
000001f0: c846 89bf e762 a9bf 225a 56bf 17a7 a6bf
00000200: 25c1 44bf c669 7b3e 4352 81bf c1c1 f9be
00000210: 85b4 62bf a2e0 98bf b02e c1be b40f 8cbf
00000220: 188b 9abf fa8d a33e e230 b73c 57de a8bf
00000230: c719 a1bf 7c11 50bf b683 48bf c4e9 85bf
00000240: ed57 b2be ee05 13bf 3378 773e 3c55 32bf
00000250: f997 8abf e9bc 11bf 7330 b9bf 1f2e 90bf
00000260: 1ad6 5fbf 8509 c3bf c7c4 f8be 6fc3 acbf
00000270: 6388 37bf 3492 4abf ecc0 8abf ce74 9fbf
00000280: 4ffe b1bf 5dcd 0cbf 33f6 85bf 58ac 88bf
00000290: 40b5 8fbf 4f06 febe 868a 71bf 4d8b a0be
000002a0: a354 29bf df59 a8bf 7cdf 36bf 7a21 a7bf
000002b0: 8108 a8bf 83e6 3cbf 95ea 97bf 8c0d 27be
000002c0: 7fab 93bf 4990 9bbf 3615 40bf 22a8 2bbf
000002d0: 3c80 6fbf cbd1 9fbf 2db9 44bf 0746 69bf
000002e0: 7359 6dbf dd54 97bf 8f02 4bbf c351 80bf
000002f0: 3a2a bebe b842 63bf 6abd 93bf f692 91bf
00000300: 8a72 6abf e87a dcbe 7194 d5be b715 fcbe
00000310: 537d 81bf e677 60bf 5df5 5abf 71f1 75bf
00000320: 6958 a2bf e890 a6bf ad35 c6be e3d9 a2bf
00000330: 02b6 72bf d8f4 4bbf 03d8 c1bf 8488 5abf
00000340: 08b9 18be bd59 33bf e890 51bf bf38 27bf
00000350: 8a74 8abf a0a6 6bbf ede8 8fbf bfc0 9abf
00000360: 43c1 bfbf aa45 09bf 1bcf 17bf c748 46bf
00000370: 1c5e a2bf 0728 6ebf 0854 a6bf e69e d2be
00000380: ea7d 6cbf eb34 5fbf 7bce 75bf 2d7a 49bf
00000390: 3760 d8be 6bc2 13bf a208 9ebf d91a 68bd
000003a0: 5cc8 8cbd 078b 59bf 9a88 a9bf 2f9a 8cbf
000003b0: 408f 89bf 8ba9 a9bf b038 85bf 321d 8fbf
000003c0: c947 60bf 568d 96bf 9154 d33d 24b7 76bf
000003d0: 7e55 57bf 8051 8cbf a989 7fbf f1d8 61bf
000003e0: ec21 8cbf 674f 81bf 0d95 71bf cd45 91bf
000003f0: 4b7e 4cbf af98 72bf b749 8cbf f9d2 66bf
-0.06873072 -1.2268069 -0.20555788 -0.8037286 -0.98441523 -1.4377415 -0.9496412 -1.2182877
-1.1103771 0.14299229 -1.0854526 -0.910663 -0.7461481 -0.9603174 -0.90313244 -0.6760152
-1.03003 0.65325594 -0.7055328 -1.5563846 -0.76906633 -0.8973825 -0.20518185 -0.6649176
-0.11748249 -1.0163851 -1.1842009 -0.8057275 -0.7497076 -0.69798553 -1.3284104 -0.17145728
-0.6276715 -1.2438468 -0.4070146 -0.8280728 -0.21413629 -0.36415395 -0.62205374 -0.34323058
-0.9132394 -1.0866352 -1.291081 -1.2766272 0.100750476 -0.6983772 -0.5101372 -1.1371791
-0.7590534 -1.5378362 0.15647238 0.04069143 -0.6861627 -0.6851978 -1.2234473 -1.019647
-0.3399445 -1.3193518 -1.287925 -1.1434618 -1.0531667 -0.7351243 -0.33699408 -0.93425953
-1.1742399 -1.6157746 -0.92375284 -1.4793167 -1.1262482 -0.9274272 -1.0145781 -0.92976755
-0.7246249 -0.9873955 -0.37479863 -0.8370051 -1.1693151 -0.56912166 -0.8895395 -0.93027234
-0.60939336 -0.6417189 -1.3207248 -1.6174805 -0.7760905 -1.1987671 -1.0718801 -0.41375974
-0.2624157 -0.1149053 -1.2399118 0.31117263 -0.69916606 -0.82045203 -0.6735057 -0.8527625
-0.9290612 -1.2931973 -0.25636825 -0.8526574 -0.6248006 -1.0745807 -1.0741593 -0.95837593
-1.236035 -1.0629452 -0.78301406 -0.8038543 -1.0860754 -1.1528257 -0.9464544 -0.95892763
-0.8501718 -0.7216188 -0.4951311 -1.1558527 -0.8832087 -0.13852967 -0.830274 -1.2128092
-1.2802373 -1.474403 -0.52688515 -0.90006346 -1.0724726 -1.3233308 -0.8373128 -1.3019742
-0.76857215 0.24552068 -1.0103229 -0.48780635 -0.885567 -1.1943552 -0.37730932 -1.0942292
-1.2073698 0.31944257 0.022362176 -1.3192853 -1.2585992 -0.8127668 -0.78325975 -1.0461965
-0.34832707 -0.57430923 0.24166946 -0.6966131 -1.0827628 -0.5692888 -1.446791 -1.1264075
-0.8743607 -1.523728 -0.4858763 -1.3497142 -0.71692485 -0.7912934 -1.0840125 -1.2457521
-1.3905734 -0.5500086 -1.0465759 -1.0677595 -1.1227188 -0.49614188 -0.94351995 -0.31356278
-0.6614477 -1.3152426 -0.7143476 -1.3057091 -1.3127595 -0.7378923 -1.1868464 -0.16313761
-1.1536711 -1.2153407 -0.75032365 -0.67053425 -0.93555045 -1.2485899 -0.76845056 -0.9112248
-0.92714614 -1.1822773 -0.7930078 -1.0024952 -0.3714159 -0.8877368 -1.154218 -1.1372974
-0.9158102 -0.4306252 -0.41714814 -0.49235317 -1.0116371 -0.8768295 -0.85530645 -0.96071535
-1.2683231 -1.3012972 -0.38712826 -1.2722744 -0.9480897 -0.79670477 -1.5144047 -0.85364556
-0.14914334 -0.70058805 -0.81861734 -0.6532096 -1.0816815 -0.92051125 -1.1242958 -1.2090071
-1.4980854 -0.53621924 -0.5930039 -0.774548 -1.268497 -0.93029827 -1.2994394 -0.41136855
-0.9237963 -0.8719012 -0.9601819 -0.7870205 -0.42260906 -0.57718533 -1.2346385 -0.05666623
-0.06874153 -0.84977764 -1.3244812 -1.0984553 -1.0746841 -1.3254865 -1.0407925 -1.1180785
-0.87609535 -1.1761882 0.10318864 -0.963732 -0.84114826 -1.0962372 -0.9981943 -0.8822165
-1.0947852 -1.0102357 -0.9436806 -1.1349427 -0.7988021 -0.94764227 -1.0959996 -0.9016567

fc2.weight f4 [300, 404]
00000000: ddfa 393c ee84 41bd c7d8 f8bc 1209 ab3c
00000010: 9a5c b7b9 ff7e 973c 22ba 053b 7143 f93c
00000020: fb3d b13c c4fd 5abc 6263 95bc 0f8a 29bd
00000030: afd6 013d 4a11 24bc 4e12 6ebd b168 e7bd
00000040: 942e 3b3d 77c1 67bc 3bc6 2cbb 90d9 473c
00000050: 9937 803c 16e2 71bb 1716 7cbd ec69 babd
00000060: d771 133c 12a5 cebd 6ea9 f03a ac82 9fbd
00000070: 2127 e7bc 73ea 2ebd fc32 303d facc 4dbd
00000080: c030 17bd fcdf abbb 4923 d83c 7b9e 873c
00000090: 4888 1bbd c6b5 9cbd f337 33bd dce2 92bd
000000a0: 2334 123d 9c3f 80bd ce11 53bd 775c 793c
000000b0: 780e d8bd 60ee 61bd bc38 37bc c2bf 493b
000000c0: 4f92 733c 035b a03b 10c1 07be c242 95bd
000000d0: bd1c 88bd e5c0 80bd f5a7 113d 7d7a 5fbd
000000e0: fa16 47bd d598 e7bc 1363 72bd fc86 033c
000000f0: ac70 cdbd df22 8dbd 25d8 a43a 516b 9abd
00000100: 0b21 123d 0554 0c3d 0359 6dbd bf44 b3bc
00000110: 567d a2bc 8b79 043c 0075 debb 02b2 0bbd
00000120: 24c6 e33c 15d3 34bd 9e47 5cbd 8095 433c
00000130: 9b60 f9bc 2411 9cbd ff38 2a3d 1b19 77bd
00000140: 4d12 d2bd ea41 003d abe9 87bd 5276 52bd
00000150: ed6c 39bd f6c2 76bb dd83 483d d18c 60bd
00000160: d9cd e93b 23e0 8ebd 0783 c53c c42e 8abd
00000170: 2888 80bc dfce abbd 02e7 bdbd 7da8 153c
00000180: fb7c 46bd 1d4f bcbd 328c a5bd df85 d13c
00000190: 5a32 e6bb 6209 cebc 6469 fcbd c0b5 0a3d
000001a0: 66ff 103c c1de 0fbd d9de 7f3c f117 81bd
000001b0: f166 20bd 253e 333d 972e 533c fa2b 0bbd
000001c0: 9e23 6abb 0e64 acbd ec6b 88bd ac7b 8cbc
000001d0: 50d3 913c b27c c2bd bbd4 1cbd a99a 78bd
000001e0: f1cc f63c e567 b9bd a9be 633c d466 633b
000001f0: 8b0d b1bd fe56 143d 28ce 79bd 5dd8 63bc
00000200: f66c a73c d3d0 46bd e09f a13b 082f 8bbc
00000210: 0a53 063d a8a3 a9bc e138 eabc b8e7 09bd
00000220: c916 88bc 47a0 02bd f8ab 0cbe 10c7 d3bb
00000230: eede 9dbd c217 193d d8a2 933c dd37 88bd
00000240: d71b 17bc 147e f8bc c0b7 443b 0132 26bc
00000250: 803b 0dbd 8b13 87bd 622a e0bb aa07 e9bb
00000260: 96c7 19bd a787 533c b96f f03c a93e 39bd
00000270: 7acb 4bbd 5072 07bd b2f5 6bbd 8e06 243d
00000280: a32f b0bb 7aa8 febc 5cd1 923c 566f a7bd
00000290: d2a2 74bd ffc2 033c 358b b73b 6cca 83bd
000002a0: 4a21 8abd 1d22 1d3c 7100 ecbd 61fc 88bc
000002b0: c6bb 363c 6c54 d53c fab0 9bbc 02a2 b3bc
000002c0: 889e 023d 2eba d6b9 dcd0 56bd 86ca 0ebd
000002d0: 348b 1e3c 8402 273d c3ec 96bc 71bb 0abd
000002e0: 9af3 983c a0a6 8abc 7fa7 cdbc ff5b 06bd
000002f0: 9d01 223c 60b9 433d 1910 7a3c 3742 cfbc
00000300: f0c2 5bbd b3d3 65bd 546b b9bc 64e3 1e3d
00000310: 0c6f 46bd 04fc 1fbd ecfa 0fbd bc23 4c3d
00000320: e63c 843d e05a eb3b d1d8 273b 54fc 1f3d
00000330: 00ff 18bd ba45 ef3c 0aca 01bd 9794 503c
00000340: 8c6d 78bd 5abb 02bc 1e2e 8abc 70d0 8dbc
00000350: 3719 193d 0357 b1bc 38fd 7e3c cf7e 4f3d
00000360: e9bc 103b 314c c1bd ab31 06be 7f01 97bd
00000370: c216 403d d745 d0bd fc48 dcbd 6f9a 0bbd
00000380: c9a7 263d c3e8 46bb 0f0c 7c3c 97ec 5abd
00000390: 522a 4fbd 57a0 23bd dcb7 1dbd 4dd3 adbc
000003a0: 8bb9 b8bd ffd0 c4bd 78b2 14bd 1df8 5ebc
000003b0: f986 e6bc 9b0a 8ebd ccc8 0dbd 4b82 9bbd
000003c0: fcb1 bebc c21f 2dbd 06d8 7c3c b816 a9bd
000003d0: 5fd1 b1bd d115 773b 4c9d 7cbd f713 cf3c
000003e0: 5474 8abd e74c 51bd c99f 3d3d b181 a2bd
000003f0: 5d7f e53a f98a 9ebd 5ea3 343c 8c86 98bd
0.011351314 -0.047245912 -0.030376805 0.020878348 -0.00034973474 0.018493174 0.0020405133 0.030427666
0.021636 -0.0133661665 -0.018235866 -0.04139143 0.03169888 -0.010013888 -0.058122925 -0.11299265
0.045698717 -0.014145247 -0.0026363272 0.012197867 0.015651511 -0.003690844 -0.061544504 -0.09102234
0.0089993095 -0.100900784 0.0018361041 -0.077885956 -0.0282169 -0.042704057 0.043017372 -0.05024431
-0.036911726 -0.005245207 0.026384013 0.016555062 -0.037971765 -0.07651858 -0.04375453 -0.07172176
0.035694253 -0.062621325 -0.05153065 0.015219799 -0.10549635 -0.055158973 -0.01118296 0.0030784463
0.014866426 0.004893662 -0.13257241 -0.07288124 -0.066461064 -0.06286792 0.035560567 -0.054560173
-0.048605897 -0.028271118 -0.059176516 0.008027788 -0.10031256 -0.06891417 0.0012576623 -0.0754
0.035676043 0.034259815 -0.057946216 -0.021883367 -0.019835155 0.008085619 -0.00678885 -0.03410531
0.027804442 -0.044146616 -0.053779237 0.011937499 -0.030441573 -0.07620457 0.041558262 -0.060326677
-0.10257397 0.03131286 -0.066363655 -0.05138237 -0.045269895 -0.0037652827 0.04895388 -0.054821793
0.0071351347 -0.069763444 0.02411033 -0.06747201 -0.015689924 -0.08389067 -0.09272577 0.009134409
-0.048459034 -0.09194777 -0.08083381 0.02557653 -0.0070250453 -0.025150958 -0.12324789 0.033864737
0.008849954 -0.035124544 0.015617096 -0.063033946 -0.039160673 0.043760438 0.012889526 -0.033977486
-0.0035726796 -0.084175214 -0.066612095 -0.017148815 0.017800957 -0.0949644 -0.038288813 -0.06069437
0.03012702 -0.090530194 0.013900437 0.0034698742 -0.08645161 0.036215775 -0.06098762 -0.0139065655
0.020437699 -0.048538994 0.0049323887 -0.0169902 0.032794036 -0.02070792 -0.028591575 -0.03366825
-0.016612427 -0.031891134 -0.13737476 -0.006462939 -0.07708536 0.037376173 0.018021986 -0.0665128
-0.009222946 -0.030333556 0.003001675 -0.010143758 -0.03448057 -0.065955244 -0.00684099 -0.0071115093
-0.037543856 0.01291076 0.029350149 -0.045225773 -0.049754597 -0.033068 -0.05760736 0.040045314
-0.0053767725 -0.031086195 0.017922096 -0.081755325 -0.05972559 0.008042096 0.0056013116 -0.06435093
-0.06744631 0.009590653 -0.11523522 -0.016721906 0.011153167 0.026041232 -0.019005287 -0.021927837
0.03188947 -0.00040955975 -0.052445278 -0.03486111 0.009676743 0.040773883 -0.018423444 -0.033870164
0.018670846 -0.016925156 -0.025104282 -0.032802578 0.00988808 0.04778421 0.015262627 -0.025300128
-0.053652704 -0.056110095 -0.022634186 0.038791075 -0.048445746 -0.0390587 -0.035151407 0.049838766
0.06456928 0.007182464 0.002561141 0.039059 -0.037352562 0.029208053 -0.03168682 0.012730739
-0.060651347 -0.007979238 -0.016867694 -0.017311305 0.037377562 -0.021647936 0.015563302 0.050658043
0.0022085255 -0.094383605 -0.13104884 -0.07373332 0.046896704 -0.10169571 -0.10756108 -0.034082826
0.040687356 -0.003035114 0.015383734 -0.053448286 -0.05057747 -0.039947834 -0.03850542 -0.02121892
-0.090197645 -0.09610175 -0.036303014 -0.0136089595 -0.028140532 -0.069356166 -0.034615323 -0.07593211
-0.023278229 -0.042266615 0.015432363 -0.082562864 -0.086825125 0.0037702213 -0.061673447 0.025278075
-0.06760469 -0.05109873 0.04629496 -0.07934893 0.0017509271 -0.07741351 0.011025278 -0.07447538

fc2.bias f4 [300]
00000000: 170b cebd 62a6 16bc a66e ebbd 12c8 a3bd
00000010: 0585 2fbd 15af 03bd a9b6 dfbc fe77 67bd
00000020: ffc2 a33f ecbd bbbd 3c80 0f3f 07e4 dcbc
00000030: a864 1ebd b73a 85bc 4af3 c8bd 9964 9dbd
00000040: 6066 12bd e478 c7bd da00 cabd 2e2a 4bbd
00000050: 9423 0ebf 62ca acbd 0cfc e6bc 2dba c1bd
00000060: fea7 66bd 7f0e 5b3f 6b33 6ebd 83cb 8abd
00000070: a747 a03f c658 2abd 8f62 8c3f bbb6 d6bd
00000080: 53dc eabd 17e6 49bd c191 5b3f 1cb4 c8bd
00000090: bb44 11bd e836 dcbd ae68 88bd c8db abbd
000000a0: a29b 97bd 0a84 bdbd 9e69 9b3d ef8b 6ebd
000000b0: 2af6 cebd a0d8 a7bd 4352 25be 4dc7 debc
000000c0: 8241 9b3b b575 b9bd d8f9 7bbd 329d 74bd
000000d0: 4736 813b cf69 8dbd 7ba6 16bd 3888 74bd
000000e0: 202f ccbc e84b bc3f fd32 d0bd f132 673a
000000f0: 99f9 1cbd b67a 95be c55d d7bd 4418 10bd
00000100: 9c8d f2bd 6705 e7ba 548c 7cbc 3ac0 d8bd
00000110: 84e9 09bd e1fd 50bc 89e8 74bd 65d0 08bf
00000120: 5602 afbd 2b4c 4e3b 7f1b a3bd 1b92 79bd
00000130: 7a9c bebd 1f3f a7bd 4073 65bc e13c 983f
00000140: edc0 953c 5fe4 dfbc ecc2 8abd ddba 883b
00000150: af93 dcbd da6e e9bd 9a88 bfbe 8080 883c
00000160: 2bba 86bd 0655 bcbd fdca 1fbd 0073 08bd
00000170: 50c9 5ebd e5b8 8fbd 09fe 60bd 8c77 abbd
00000180: c26d 04bd cf43 96bd 1c09 d1bd f832 b4bd
00000190: 52bc 77bd b03d a3bd 8cc9 aabd 9e08 2ebd
000001a0: d13d 133e 2085 c3bd 302e 543f dd5c 9ebd
000001b0: 8885 98bd 69de 47bd 8f73 e43c ce8d afbc
000001c0: ae70 bcbd 883c 76bd 0e16 c5bc 50b1 9fbd
000001d0: 3e80 febd 67cc 04bd 6616 e2b9 a942 83bd
000001e0: d691 19be a450 8fbd a60a 03bd d803 283c
000001f0: 8d4d c3bd f3e5 14ba 56c5 8cbd ab1b 65bd
00000200: 1b7e 08bc a7b1 9cbd 8174 a6bd cb7b b4bc
00000210: 0330 84bb 5682 85bd ddc7 bdbd 62e7 47bd
00000220: c3ef bfbd 524f b5bd 84df 2dbf 4f4f 47bd
00000230: 4126 c7bd 97f2 eebb dfab b1bd 1ccb adbd
00000240: f29a 74bc 6437 89bd a860 5bbd 0b40 9abd
00000250: 6499 98bd 64b8 4fbd b8a9 c7bd 7d65 ae3f
00000260: 34a3 61bd df56 8fbd 3f7a 9cbd fe06 f6bd
00000270: abe6 bcbd 601b 61bc a2d1 babd 66d2 0dbd
00000280: fbbe eabd ae31 a1bd 3e72 0bbd eadf b1bd
00000290: 2365 94bd 7cdb e23e 360f c0bd 7d2b b8bc
000002a0: a494 d6bd 9b69 67bd 7168 2ebc 3c46 3fbd
000002b0: 5cc2 98bc d2e7 ccbd 9c44 e3bd a25f 81bd
000002c0: ddee b1bd 7497 a0bc 2d1d 4bbd ffbe 5cbd
000002d0: 8f7c 19be eb5c 91bd 3268 aebd 9d49 b5bd
000002e0: c6d3 92be f052 4ebb 3bad 18bd aabc aabd
000002f0: 09f6 87bd 7461 abbd 3d6d e5bc 8ab1 5ebe
00000300: 17c0 24bc 2aff 3bbf b801 74bd 534c 59bd
00000310: a812 4dbd a2d3 b6bd 8d8e 00be 05d1 debc
00000320: 3fd3 b6bc c9ec 8abc fa5d 29bd 70c1 19bd
00000330: e282 a4bd caab 42bd b8c7 41bc 71c3 0dba
00000340: ad6e 1dbd 916a 8abd 4959 8fbd 88b2 5ebd
00000350: b996 00bd 9faf 49bd 75dc 26be 42ea 8ebd
00000360: bdf1 00be 97a7 e6bc eb64 d5bd 5685 15bd
00000370: 1bea 78bd f41f a1bd 246b a6bd 4e5d c8bd
00000380: 8237 7dbc 1a11 83bc 1e34 41bc 03bc 85bd
00000390: 0546 87bd cc06 16bd 35bd 26bd 9f0d 1dbd
000003a0: 6335 0bbc d204 eabc 921e 31bd 18ef 1dbd
000003b0: 82a7 d3bd f1d6 d6bc 0bec f6bd d120 c9bd
000003c0: 1aea c0bd 965e 8bbd d2e0 0f3c 9398 f6bc
000003d0: 865a 873f d598 fbbd f062 b5bd 4ade b5bd
000003e0: ab75 063a 8b97 2dbc 598e 04be a8fd 63bd
000003f0: b8c3 c8bc f9f0 68bb 0451 c1bd cb96 91bc
-0.10060709 -0.009194942 -0.11495714 -0.07997145 -0.042851467 -0.032149393 -0.027308779 -0.056510918
1.2793883 -0.09167084 0.56055045 -0.0269642 -0.038670212 -0.016263349 -0.09812029 -0.07685203
-0.035742164 -0.09739855 -0.09863444 -0.049600773 -0.5552304 -0.08437039 -0.028196357 -0.09459338
-0.056312554 0.85568994 -0.058154505 -0.06777098 1.2521867 -0.041588567 1.0967578 -0.10484072
-0.11467805 -0.049291696 0.8576928 -0.09799978 -0.035465937 -0.1075266 -0.06660591 -0.08391529
-0.074027315 -0.092537 0.07588504 -0.05823892 -0.10105546 -0.08195615 -0.16144662 -0.027194643
0.0047380337 -0.09055654 -0.061517566 -0.059720226 0.003943238 -0.06904947 -0.036779862 -0.05970022
-0.024924815 1.4710665 -0.10165975 0.00088195415 -0.038323972 -0.29195184 -0.10515932 -0.03517939
-0.11843416 -0.0017625511 -0.015414316 -0.10583539 -0.033669963 -0.012755842 -0.059792075 -0.53442985
-0.085453674 0.0031478505 -0.07964229 -0.060930353 -0.09307189 -0.08166336 -0.0140045285 1.1893579
0.01828047 -0.027330576 -0.0677546 0.0041726665 -0.10770356 -0.113980964 -0.37408906 0.016662836
-0.065784775 -0.091959044 -0.039011944 -0.033312798 -0.054391205 -0.07017688 -0.054929767 -0.08372411
-0.032331236 -0.07337152 -0.102068156 -0.08798784 -0.06048233 -0.0797075 -0.08339223 -0.042488687
0.1437905 -0.09546876 0.82882977 -0.07732556 -0.07447344 -0.04879609 0.027887134 -0.021429922
-0.092011794 -0.06011632 -0.024058368 -0.077974916 -0.12426804 -0.032421496 -0.00043122767 -0.06409199
-0.14997038 -0.06997803 -0.031992577 0.010254823 -0.09536276 -0.0005680017 -0.06873576 -0.05593459
-0.008330847 -0.07651072 -0.0812769 -0.022031685 -0.0040340438 -0.06519 -0.092666365 -0.04880465
-0.09371903 -0.0885302 -0.6791918 -0.04865962 -0.09724093 -0.0072921026 -0.0867536 -0.08486006
-0.01492952 -0.06700018 -0.053558975 -0.075317465 -0.07451132 -0.050712958 -0.09749168 1.3624722
-0.055087283 -0.06998991 -0.07640504 -0.120130524 -0.09223684 -0.013739437 -0.091220155 -0.03462448
-0.11462208 -0.07870804 -0.034044497 -0.08685286 -0.07245853 0.44308078 -0.09377901 -0.022481674
-0.1047757 -0.056497198 -0.010645018 -0.04669784 -0.018647365 -0.10005154 -0.110970706 -0.06317069
-0.08688138 -0.019603468 -0.04958837 -0.053893086 -0.14988922 -0.07097801 -0.085159674 -0.08851931
-0.28677195 -0.003148254 -0.03727458 -0.08336766 -0.06638724 -0.08368197 -0.02800619 -0.21747413
-0.010055563 -0.73436224 -0.05957195 -0.053051304 -0.05006662 -0.089270845 -0.12554379 -0.027199278
-0.022317527 -0.016958611 -0.04134939 -0.037537992 -0.080327764 -0.047527112 -0.011827402 -0.0005407846
-0.038435627 -0.06758607 -0.06999452 -0.05436948 -0.03139374 -0.04923975 -0.16295035 -0.06978275
-0.12592216 -0.028156085 -0.10419639 -0.036504112 -0.060770135 -0.07867423 -0.08125904 -0.097834215
-0.015455129 -0.015999366 -0.011792211 -0.06530001 -0.06605152 -0.036627576 -0.040707786 -0.03834307
-0.008496615 -0.028566752 -0.043242045 -0.038558096 -0.10334684 -0.026225539 -0.120567404 -0.09820712
-0.09419651 -0.0680515 0.008781629 -0.03010205 1.05745 -0.1228501 -0.088567615 -0.08880289
0.0005129228 -0.010595213 -0.12944926 -0.055661827 -0.024507388 -0.0035544022 -0.09439281 -0.017772099

fc3.weight f4 [1, 300]
00000000: 61b0 35bc e952 fa3c 31d7 5fbc fa77 abba
00000010: ed1e 493c 3b51 d63b 3f57 b6b9 67c2 823b
00000020: 7592 e63c 2a60 423b 9513 c13c 20e9 35bc
00000030: 321d 553c 476d 7b3c fbf0 a13a b07c 8e3c
00000040: 9d94 8ebc cb79 343c 4a4e 3bbc 3d85 923c
00000050: ab45 acbc 97b1 f339 e956 143b 9c07 f6bc
00000060: ae54 69ba 9893 1d3d 9039 85bb 9a05 c6bc
00000070: 72b4 e23c 99fa 6d3c 362b ae3c b69a bcbb
00000080: 6bab 213c c80f 3d3c 9848 593c 7cdb 84bc
00000090: fead 023c a58b 2c3c c6ae 6dbc 4e0b 27bc
000000a0: 9c39 19bc 903e e53c 77e3 173d 7fc9 c53c
000000b0: 23ad 15bc 5342 98bc 48be e33c f082 733c
000000c0: 3aca d53c 13f9 e7bc 05b0 913c d428 5dbc
000000d0: cf03 af39 8b58 dc3c 433d 9b3c 2eb3 ed3b
000000e0: 189a 6fbc a828 453d b324 0cbc 3f5d be3c
000000f0: 27ed 52bc a7b3 2fbd ebeb d23a 8f95 03bc
00000100: 56a2 dfbb e44a e9bb a93d eb39 939d b0bc
00000110: 47c4 c8bb ea29 f6bc 8d93 9bbb 697c a3bc
00000120: 9896 9c3b c64f d83c c735 d4bb 73fe b2bb
00000130: ea1d 9b3c 142f 8bbb 9b95 93bb 5404 003d
00000140: 5b4b 503b 69a5 41bc 2a0d aabb 5607 dbbc
00000150: 4eb5 103c 4da8 3ebb 30e4 d6bc ea96 f33c
00000160: 02b9 9abb 9cca 903c 028b 51ba 594e 573b
00000170: 51c8 8fbc b6eb 71bc e707 2d3c 9d98 d63c
00000180: 09c2 173c 5b40 45ba 2fef c93c 5270 263c
00000190: 6de0 14bc 05a1 823c 4a4f 9a3b de52 5e3a
000001a0: 2560 143d a3ed 283c 37bc 393c 824f 40bc
000001b0: 18a5 b13c d653 6d3c 28f7 8bbb 0049 133c
000001c0: 81f3 90bc dc0b cfbc a54f c3bb dfd1 79bc
000001d0: c1da babc 78de a93c b839 efbc 91d3 5f3c
000001e0: 28c2 a23c 1f21 d43c 0a80 0d3c 0e53 a7bb
000001f0: fda5 2abc 4205 fd3b d0d0 e6bc fa2f 1ebb
00000200: 57f9 0bba f896 393c b2ac b43b d4d1 bbbb
00000210: 3a4a 43bc 562e ed3b b6df 50bc 22d8 2cba
00000220: 7ab9 c0bc f2bb 8bbb 4600 9bbc b663 fdba
00000230: 6bf3 b63b 3212 fcba b907 e93c d243 653c
00000240: 36b2 b63b d20f 9fbb b1f4 c5bb a47e bb3c
00000250: 0239 7cbb 4096 593b c807 c83c 56cf 463d
00000260: c24b d7bc c3cc 253b c757 903c 1d8b 8c3c
00000270: b0e9 49bc fc8d 00bb fb38 6cbc b467 9ebc
00000280: 56fe 523c 1c60 16bc 4071 c53c abd8 31bc
00000290: 3e81 8abc 748c 2d3c 4b46 d7bc 75e4 a23c
000002a0: 8703 31ba 37e9 e9bc ca74 edbb 1b5d 263c
000002b0: 6ba0 a1bb 2082 cfbc 513a 81bb 388b 3a3b
000002c0: e310 9a3c 02df f33c 9d3d 3a3c c8a7 15bc
000002d0: 7def 4bbd 2a08 9cbc 64f9 913c 6e8a 303c
000002e0: c7ef bdba 6dcf 373c c5e5 e93c 4335 f03c
000002f0: 37f2 143a 75bc 513c 7323 2e3c 09ba 17bd
00000300: a0bd bc3c 9c48 c6bc 85c7 3cb9 f253 9f3c
00000310: 3919 843b 0a9f 3c3c cc9f 5c3b fac8 993b
00000320: 235f ca3c 6e3b 133c 4e35 99bc 614c f13c
00000330: e21b 663b 8ce3 90bc e851 c33c e0fe c1bc
00000340: 82bb 39bc 9db4 8dbc e2f0 9aba 50f8 efbb
00000350: 502d a8bc 68d5 563c 9977 173c 79af 02bb
00000360: 698f 943c e908 143d bed5 df3b 8f03 863b
00000370: ddb2 9fbc 966e f0bc 186c 17bc 8d2e 36ba
00000380: 6da9 febb 6e59 ba3c 59fa 8439 09a1 813c
00000390: 6a4c 53bb 9bca 833b 61af d3bc 4d56 2eba
000003a0: 951e f43c 08d0 cebc ffb3 3f3c 4765 3f3d
000003b0: 9da8 2f3c 3f43 e63c 85a5 22bb 9ef3 dcbc
000003c0: 327a b53c e4b6 053d a9c5 b33c 7c82 e5bc
000003d0: 75b9 0b3d 2256 52bc 879e 923c fddb dbbc
000003e0: 484b 013c 8cfb 963c da09 16bc 5b21 4c3b
000003f0: 0804 bbba e201 1dbc 8820 e23c 9605 9438
-0.011089415 0.030557113 -0.0136621455 -0.001308202 0.01227544 0.006540445 -0.00034778749 0.0039904597
0.028146008 0.002965937 0.023568908 -0.011102945 0.013007449 0.015345878 0.0012355143 0.01739344
-0.017404849 0.011015366 -0.01143224 0.017885799 -0.021029314 0.00046480887 0.002263481 -0.030032925
-0.0008900863 0.038470834 -0.0040657 -0.024172593 0.027673934 0.014525079 0.021260839 -0.0057557477
0.009867529 0.011539407 0.013261937 -0.01621794 0.007976053 0.010531341 -0.014507001 -0.010195566
-0.009352114 0.027983934 0.03708216 0.024143932 -0.009135517 -0.018586313 0.027800694 0.014862761
0.026097406 -0.02831701 0.017784128 -0.013498504 0.0003338144 0.02689769 0.01895011 0.007254026
-0.014624141 0.048134476 -0.008553672 0.023237823 -0.012873924 -0.04289594 0.0016092038 -0.008031263
-0.006824772 -0.0071195234 0.00044868633 -0.021559512 -0.0061269137 -0.030049283 -0.004747814 -0.019956784
0.0047786944 0.026405226 -0.0064761373 -0.0054624616 0.018935163 -0.0042475555 -0.0045039183 0.031254128
0.0031783197 -0.011819222 -0.0051895576 -0.026736896 0.008832289 -0.0029092014 -0.026231855 0.029735047
-0.0047217617 0.017674737 -0.0007993431 0.0032853095 -0.017551573 -0.0147656705 0.010560966 0.026195819
0.00926257 -0.00075245433 0.024650184 0.010158615 -0.00908671 0.01594592 0.004709159 0.0008480976
0.036224503 0.010310563 0.011336378 -0.011737706 0.021685168 0.01448532 -0.0042714067 0.0089895725
-0.017694237 -0.02527421 -0.005960422 -0.015247791 -0.022809388 0.020735964 -0.029202327 0.013661281
0.019867972 0.0258947 0.008636484 -0.0051063364 -0.010415551 0.007721574 -0.028175741 -0.0024137483
-0.0005339584 0.011327498 0.005513751 -0.0057318006 -0.011919552 0.0072381897 -0.012748649 -0.00065934856
-0.023525942 -0.004264348 -0.018921029 -0.0019332084 0.005583217 -0.0019231497 0.028446065 0.01399322
0.0055754436 -0.004854181 -0.0060411324 0.022887535 -0.0038486128 0.0033201128 0.024417773 0.048537575
-0.026281241 0.002529905 0.01761998 0.017156178 -0.012323782 -0.001961588 -0.014417882 -0.019336559
0.012878021 -0.009178188 0.024101853 -0.01085488 -0.01690733 0.010592569 -0.026278635 0.019884327
-0.000675254 -0.028553588 -0.0072465884 0.010154034 -0.0049324534 -0.025330603 -0.0039437194 0.0028464328
0.01880688 0.029769424 0.011367229 -0.00913424 -0.04978894 -0.019046862 0.017819114 0.010775192
-0.0014491015 0.011218888 0.028551945 0.029322272 0.0005681845 0.012801279 0.010628569 -0.03704265
0.023039639 -0.024204545 -0.00018003404 0.019449208 0.004031327 0.011512527 0.0033664582 0.0046931477
0.024703568 0.008986337 -0.018702175 0.029455366 0.0035111834 -0.017686628 0.023842767 -0.023681104
-0.011336209 -0.017298037 -0.0011821056 -0.0073233023 -0.02052942 0.013112403 0.009244823 -0.0019941016
0.01813479 0.03614131 0.0068309 0.0040897797 -0.019494468 -0.029349606 -0.00924208 -0.00069496856
-0.007771662 0.022747722 0.00025363525 0.015823858 -0.0032241591 0.004021955 -0.025840463 -0.0006650433
0.029799739 -0.025245681 0.011700629 0.046727445 0.010721353 0.028108237 -0.0024817896 -0.026971634
0.022152994 0.03264512 0.021944838 -0.028016321 0.034112412 -0.0128379185 0.017897857 -0.026838297
0.007891484 0.018430494 -0.009157622 0.003114781 -0.0014268169 -0.009582968 0.027603403 7.0582304e-05
