Project2_ContinuousControl/checkpoint_actor.pth (torch_old, 541413 bytes, 6 tensors)

fc1.weight f4 [400, 33]
00000000: a2f3 0cbe 11d7 e03d aeff 1f3e 556e 7a3b
00000010: dd95 89bc d83b 833c 7107 c4bc b798 94bd
00000020: 7f11 25bd 32dc 36bd 1000 8dbd 0f58 f5bc
00000030: 095c e83c 7c1e 2f3d 79ba 1bbe d6f6 0cbe
00000040: fe78 c83b 099e 91ba 76ff 0e3d 2eec a53b
00000050: 5174 683d d4cb cbbd c6cd af3d 3075 103d
00000060: f234 e2bc 1e0a 99bc f570 343d 56d5 84bd
00000070: cffe c23c c965 4b3d 47a2 7a3d b74f eabc
00000080: 40af 26be 6d4d 11be 709a eabd 518f f73d
00000090: ce14 07bd aef1 253a 09aa debc 163a eebb
000000a0: 9776 503d c95e 083d cf9a 05be 7b68 d6bb
000000b0: c996 913d dd99 593d d870 4a3b d0ad e83c
000000c0: f5bc 67bd da16 99bc f65d 083d bf7e f43c
000000d0: 69f8 053d 66d7 dd3c a890 adbd e4e3 1dbd
000000e0: ab63 283e 1c7d 8f3c 0f76 7c3d 771f 0a3e
000000f0: 7773 ec3b fa30 2bbd c3af 28bd f970 0a3d
00000100: ec03 3bbc d99d 293f ec78 e83d 4a74 5d3d
00000110: 664a 07be beb1 aebc d04e 83bc 0ed1 16be
00000120: 6925 5bbc 7f46 00bd 2525 373e efa3 e3bd
00000130: 611b 613c f5ad d3bb e7c2 58bd 967a c6bd
00000140: a7a9 dd3d 9e34 ae3c 3275 75bd 41d4 f13d
00000150: 8728 0bbd ed25 c23c d3d5 57bd 2250 783d
00000160: 8b14 04be a5df d53a e08b 543d 20b0 91ba
00000170: 8a0c fa3d b51f f0bc 7c6d 4d3c ecd4 0bbd
00000180: accc 03bd 2bb2 3c3d 9e9b 28bf 1a9d bfbb
00000190: b740 323d dbe9 bdbd 0351 c0bd 255f 2fbd
000001a0: 8748 963c abde d9bd 0774 2e3a 5325 0f3e
000001b0: 84aa 01be 2e58 e23d 46ac 023c bd87 e53c
000001c0: d87b 443d dfdb 843e 5c92 12bd f56c bebd
000001d0: cfe3 efb9 df77 b0bd b0fc 4dbc 58fa 613c
000001e0: e1c9 4e3b fd89 4ebd 09d1 623d 214b 703d
000001f0: 57a2 c23c 7399 42be 1d2b bebd 6c64 4b3d
00000200: 0058 54b8 e83d 5d3d 8003 08ba 3ba2 b13e
00000210: 07ca 823d 078d da3d 3fe3 823d be68 8bbd
00000220: 4da8 2b3d 56c0 8a3d 5d59 d63c 0c0f 19bc
00000230: 52a0 0dbd dea3 e73d 2d60 5e3d 165c 8a3d
00000240: 2879 8d3d 0351 943c f221 ba3c 3a4f fb3d
00000250: 7b22 da3d 1a5f b2bd 73ba 773d 7431 6c3b
00000260: 4a4d 41be 6af0 b73b 02be 133e aee9 abbc
00000270: 6bf4 ddbd c0c8 c5bd bb3f 203c 87b3 cf3d
00000280: 335a bfbd e080 1bbd cee6 01be 68c4 19bc
00000290: 30fc 35be aab5 2a3d eff3 ca3c 3a29 133e
000002a0: be01 1ebd 5ffa 0c3d d753 d0bc 7a54 d2bc
000002b0: eafc 7fbd 1365 8ebd d136 28bb f136 063c
000002c0: 263f f2bb a520 a3bc cab2 bcba 9bc7 b83c
000002d0: c986 843d ad20 8dbd d16d be3d 9939 96bb
000002e0: ae38 fabb d5d1 433d dbbf 753c 3359 abbd
000002f0: 71be d93d d4ad bb3c ee00 51bd 31bf 753d
00000300: 3d5c 843d e9fb b4bd 8927 403d c0c5 9abc
00000310: c03e 713a 9690 eebe 201d aa3d f497 603d
00000320: 0bcd a63d 24ea 053d 39a2 49bd 9c68 babd
00000330: 25d6 023d 42a6 14bc 0c59 c63d 0080 d7bd
00000340: 9640 43bd 1a79 8fbc 2fe6 d0bb 6692 3bbc
00000350: 19b7 1ebd ae7b b1bd 2cf0 47ba 1122 b73c
00000360: c49e 953d b575 103d 3e08 c23c c855 9f3c
00000370: 7dad 96bc d438 7abd 7b3c af3b f41a 0f3d
00000380: 7264 2fbe 4add b23d dc0c 04bc 7f70 2fbd
00000390: 0ea3 ddbd ace8 2c3c 1317 efbe 3bc4 c93d
000003a0: 9fc2 cfbd 9860 49be e480 993d 1c9a 523d
000003b0: 0b47 f93b fd87 46be 86bb c6bc 0883 913c
000003c0: 3f97 823d e54c b13c 4844 bdbd dc01 04bc
000003d0: d7c2 2dbd e782 9ebd 9171 0c3e bd0d 72bd
000003e0: 820f 1d3d fceb 4a3d 9bae 1bbd 0f1e a43c
000003f0: 8940 2b3d abcd d6bd f455 d33d 0e6e 95bc
-0.13764814 0.10978521 0.15624878 0.0038212736 -0.016795093 0.016019747 -0.02392933 -0.072556905
-0.04029989 -0.04464359 -0.068847775 -0.029949216 0.028364198 0.04275368 -0.15207852 -0.13766035
0.006117939 -0.001110972 0.034911595 0.005063555 0.056751553 -0.099509865 0.0858417 0.03526801
-0.027613137 -0.018681582 0.044053037 -0.06486003 0.023803143 0.049657617 0.061189916 -0.028602464
-0.1627779 -0.14189692 -0.11455238 0.12087882 -0.032978825 0.00063302636 -0.027180688 -0.007270108
0.050894346 0.03329352 -0.13047336 -0.0065432168 0.07108838 0.05312525 0.0030890014 0.028403193
-0.056576688 -0.018687654 0.033292733 0.029845593 0.032707606 0.027080249 -0.084748566 -0.03854741
0.1644427 0.017515711 0.061636027 0.13488565 0.007215913 -0.041794755 -0.041183244 0.033799145
-0.011414509 0.6625648 0.11351189 0.05406598 -0.13211975 -0.021324988 -0.016028792 -0.14728186
-0.0133756185 -0.03131723 0.17885263 -0.11115252 0.013739438 -0.0064599463 -0.05292025 -0.0969135
0.10823374 0.021265324 -0.05992622 0.11808062 -0.033974197 0.023699725 -0.052694153 0.060623296
-0.12898462 0.0016317262 0.051891208 -0.0011115111 0.12209423 -0.029311994 0.01253831 -0.034138605
-0.032177612 0.04606835 -0.65862453 -0.0058475854 0.043518748 -0.0927312 -0.09390452 -0.042815346
0.01834513 -0.10638174 0.00066548627 0.13979082 -0.12662703 0.11051975 0.0079756435 0.028018827
0.04796967 0.25948998 -0.03578411 -0.09298126 -0.00045755363 -0.086166136 -0.012572452 0.013792597
0.0031553435 -0.050424565 0.055375133 0.0586654 0.02375905 -0.19003849 -0.09285567 0.049656317
-5.0626695e-05 0.054014117 -0.000518851 0.34694085 0.0638619 0.1067143 0.06391 -0.06807087
0.04190855 0.067749664 0.026165659 -0.009341966 -0.03457672 0.11310552 0.05429094 0.06755845
0.06907874 0.018105036 0.022721265 0.12270971 0.10651108 -0.087095454 0.060480546 0.0036040219
-0.1887714 0.0056133764 0.14427951 -0.02098545 -0.10837635 -0.09657431 0.0097808195 0.10141664
-0.09343376 -0.0379647 -0.12685701 -0.009385206 -0.17771983 0.041677155 0.02477452 0.14371195
-0.03857588 0.03441846 -0.025430603 -0.025675047 -0.062497057 -0.06952872 -0.0025667439 0.00819181
-0.007392782 -0.019913027 -0.0014396545 0.022556117 0.06471021 -0.06890998 0.092982896 -0.004584503
-0.0076361513 0.047807533 0.014999355 -0.08366623 0.10632027 0.022910036 -0.051026277 0.059996787
0.064629056 -0.088371105 0.046912704 -0.018893123 0.0009202771 -0.46594685 0.083063364 0.054832414
0.081445776 0.032693997 -0.049226973 -0.09101984 0.031942505 -0.009072842 0.09684953 -0.10522461
-0.047669016 -0.0175138 -0.0063750963 -0.011448478 -0.038748834 -0.08666168 -0.0007627036 0.022355111
0.07305673 0.035268504 0.02368557 0.019450083 -0.018393273 -0.06108935 0.005347786 0.034937814
-0.1712816 0.08733614 -0.008059707 -0.042831894 -0.10822116 0.01055352 -0.46697292 0.09851881
-0.10144543 -0.19665754 0.07495287 0.0514165 0.007607346 -0.19387813 -0.02425934 0.017762676
0.06376504 0.021643111 -0.09241539 -0.008057084 -0.042422142 -0.077398114 0.13715197 -0.059095133
0.038344868 0.04954146 -0.038008314 0.020033864 0.041809592 -0.10488447 0.10319129 -0.018240955

fc1.bias f4 [400]
00000000: cace 0bbd c4c3 6cbd b86a 283e e7bc c53d
00000010: d5c4 71be 67d2 4abe 6d25 5abe 8349 e2bd
00000020: 4b11 98bd dbdb 08be 3697 0a3e 4dbd 9dbd
00000030: b19a 0d3e 8efa 90bd 53bf 34be 479b 0cbe
00000040: b966 4fbe da8a 18be 8886 3bbe f6b7 30bd
00000050: 645a ebbd 8128 d5bd 33a8 87bd d6a3 0abe
00000060: f8b3 e63c f860 f0bd 8417 d0bd e8c6 4f3d
00000070: a59f f43d dd34 613d 6a78 68bb 9bd2 b23d
00000080: 7616 fb3d 4918 4bbd c98a b6bc 0c41 f6bd
00000090: 8622 6bbe e8f7 66bc a738 183e 7af8 a63d
000000a0: d7fc 473e 8680 f93b b014 643d 42f9 7e3c
000000b0: c5da 8e3d 2b1f 723d c653 ad3d 8c41 483d
000000c0: 32d8 573d 4d7e fbbd ea78 cc3d 618f 0c3e
000000d0: 81fd ed3c 6ee5 9c3d 98c3 8dbd 5902 1d3e
000000e0: 367e 03bd 98db 34be 1240 93bc f499 433d
000000f0: ad2c 30be b4b3 a3bd 12b5 cf3d fc48 e6bb
00000100: 73fd 5fbd 5731 b2bd 29ec 30bd 849b 2dbe
00000110: ed43 8a3d 68dc 4abd a23b 393d b1da 06bd
00000120: fb7e e93d b3de 32bd ecb2 943d 46c1 643d
00000130: 9c05 a0bd cbd1 cfbd b5b0 d93d cbd7 73bd
00000140: 6666 bfbd 7d9f 143c 6a00 cebd d351 acbd
00000150: f7a7 d0bc 1acf 113e a2e5 823d 4d95 1f3e
00000160: 85d4 223e 2529 02be ada1 14be 8ab7 4dbd
00000170: ea21 343d 2c87 9b3c b5d7 3fbe 224a 8bbe
00000180: 283d 96bd 10fb b43d 9e9c 7a3a 1ddf af3d
00000190: 3314 59bd 82d0 003e 1968 d5bd d624 413d
000001a0: 5984 943c c8cb 1b3e 8c52 8a3d 8db9 0cbd
000001b0: 9f5c 12bd aea1 55bb e017 7b3d 5475 0bbe
000001c0: 31e9 d3bc 2f9c e2bd f40e c63d 0388 363e
000001d0: cfce 96bc 1680 ef3a 850b f0bd fa90 eebd
000001e0: 23d3 6dbd 679e 8ebe 38e1 61be b7f1 ac3d
000001f0: 4880 28be f58c 623c d675 353e 7dbf 2d3d
00000200: 893e 6ebc 22c6 d13d ccb9 71be b385 be3d
00000210: f63e 473d a13d db3d 1ef9 12be a85b 903d
00000220: ef0b 27be 66fe cb3d 0894 2c3e fea9 943d
00000230: 6032 923d 36c2 223d fbc3 edbd cb7b 6a3d
00000240: 4675 adbd 238b 5c3c adf0 a8bd f5d3 a8bd
00000250: db97 61be 5eef 91bd 0532 1abe 4611 1a3d
00000260: b42e 99bd 9c27 48be e2f7 3e3d d54e 82be
00000270: e4ef 473d a185 83be dfd9 eebd 7fc9 16bd
00000280: 0f11 14bd 48c5 3d3e e686 263d 85f6 3d3d
00000290: 6786 883d 22c1 4dbc 5249 7e3d 02f3 c23d
000002a0: 0236 74bd db1f fd39 61ec c5bd 5936 30be
000002b0: 014f 6abd 2708 04be c54a 4fbe c5c2 843e
000002c0: 8e3b 2dbe fb64 00be 3cd5 82bd 1aa6 a5bc
000002d0: df63 b33d a0c9 26bd d945 54be d597 abbd
000002e0: e0eb 05be 51dc b7bd 1758 18be 36d9 cdbd
000002f0: 3c48 0a3e f00a 5d3e 5639 46bd 56e8 38be
00000300: 5dd5 20be cf10 0e3e b595 28bd 138d 3bbd
00000310: a96c a9bd 291d 15bd 3bad ae3d 23b6 acbd
00000320: 14d4 f0bd f3d0 95bd 9d0b 04be 9cab dabd
00000330: 449a 2abe d65e ed3d 8118 b73c e438 9cbc
00000340: 1d40 c33d 0fd7 d73d 73a3 39be 2fa7 453d
00000350: f7da f9bc 2849 5ebe e3e4 e83d 67be 99bd
00000360: 0fa1 94bd c659 dbbd 6131 88bc c645 ca3c
00000370: 0d30 55be e760 53be 307b 77be e235 efbd
00000380: 73bf d03d 9983 8fbc 1324 ca3d d1f4 3e3c
00000390: 0e1f 813d cec7 8abe 5571 613d 650d 00bd
000003a0: 7614 c23c f910 60be d461 d03c 6c62 213e
000003b0: bc07 ddbd 969a f9bd 42c2 13be 1c27 afbd
000003c0: 6846 e23d 8900 0a3d 14e6 fa3d 4343 b83d
000003d0: 3e50 21be a2c7 6fbc bf08 203e f1cc 823d
000003e0: c6ef e8bd c45c 5ebe ed59 533b cdfd f93c
000003f0: fb75 91bd 6bc5 88be 9191 293e d817 ee3c
-0.034132756 -0.057803884 0.1644696 0.09655171 -0.23610242 -0.19806825 -0.2130334 -0.110491775
-0.07425173 -0.13365118 0.13534245 -0.07702122 0.13828541 -0.070790395 -0.1765111 -0.13731109
-0.2025403 -0.14896718 -0.18313038 -0.04314419 -0.1149185 -0.10408116 -0.06623878 -0.13539061
0.028161988 -0.11737245 -0.10160735 0.0507268 0.11944512 0.054982055 -0.0035472163 0.08731576
0.122601435 -0.049583707 -0.022282975 -0.120241255 -0.22962388 -0.014097191 0.14865361 0.08152862
0.19530044 0.007614198 0.05568379 0.015562357 0.06975321 0.059111755 0.08463244 0.048890635
0.052696414 -0.12279949 0.09984 0.1372657 0.029051544 0.07660948 -0.06922072 0.15332927
-0.032102786 -0.17661893 -0.017974887 0.047754243 -0.17204542 -0.0799326 0.10141958 -0.0070277434
-0.054685067 -0.08700817 -0.04319397 -0.16953856 0.06751237 -0.049526602 0.045222886 -0.032923404
0.11401173 -0.043669414 0.07260689 0.055848382 -0.0781357 -0.10147437 0.10629407 -0.059531968
-0.09345703 0.009071228 -0.10058673 -0.08414044 -0.025470717 0.14239159 0.06391455 0.15584297
0.15901382 -0.12711008 -0.145148 -0.050223865 0.043977655 0.018985353 -0.1873463 -0.27204996
-0.073358834 0.08836949 0.0009560081 0.08587477 -0.05299778 0.1257954 -0.10420246 0.04715427
0.018129515 0.15214455 0.06754026 -0.034356643 -0.03573286 -0.003259759 0.061302066 -0.13618976
-0.02586803 -0.11064946 0.09670821 0.17825322 -0.01840916 0.0018272426 -0.11720947 -0.11648746
-0.058062684 -0.27855226 -0.2205857 0.08444541 -0.16455185 0.013827552 0.17720732 0.042418946
-0.014541277 0.10242869 -0.23606032 0.09302845 0.04864403 0.10705114 -0.14352843 0.07048732
-0.16313146 0.09960632 0.16853344 0.07258986 0.071385145 0.039735995 -0.11609646 0.057246964
-0.08469634 0.013460907 -0.0824903 -0.082435526 -0.22030585 -0.07125734 -0.15058143 0.03761413
-0.07479611 -0.1954636 0.04662312 -0.2545077 0.048812762 -0.25687888 -0.11662649 -0.036813255
-0.03614908 0.18532288 0.040655993 0.046377677 0.0666626 -0.0125582535 0.062081642 0.09519006
-0.05962182 0.00048279655 -0.09664226 -0.17208232 -0.05720425 -0.12893735 -0.20243366 0.25929847
-0.1691725 -0.12538521 -0.063883275 -0.020220805 0.08759283 -0.04071963 -0.2072977 -0.08378569
-0.1307826 -0.08977569 -0.14877354 -0.10051195 0.13504118 0.21586204 -0.048394524 -0.18057379
-0.15706392 0.138736 -0.041158397 -0.045788836 -0.082726784 -0.036404762 0.08529135 -0.08433177
-0.11759201 -0.073152445 -0.12895055 -0.10677263 -0.1666041 0.11590354 0.022350552 -0.019070096
0.09533713 0.10539066 -0.18128757 0.04825514 -0.030499918 -0.21707594 0.11371782 -0.075070195
-0.07257282 -0.10710482 -0.016625108 0.024691474 -0.20819111 -0.20642434 -0.24168086 -0.11680199
0.10192766 -0.017518805 0.09870162 0.0116550485 0.06304751 -0.27105564 0.055039722 -0.031262774
0.023691397 -0.21881475 0.025437273 0.15760201 -0.10792491 -0.12187688 -0.14429572 -0.085523814
0.11048585 0.033691917 0.12250915 0.08997204 -0.15753266 -0.0146349985 0.15628336 0.06386746
-0.11373858 -0.21715075 0.0032249645 0.03051653 -0.07102581 -0.26713118 0.16559435 0.029064104

fc2.weight f4 [300, 400]
00000000: b37b 793d eb72 f13c 07d1 dd3d 130c 143d
00000010: 5d2f 2bbe b7d0 d4bc 8c23 1b3e 540c 663c
00000020: 73ee c33d c1c0 5bbd 857c a2bc 607b 06bd
00000030: 5675 3dbd c2ac 3a3e 9f9a 233c 66e7 153d
00000040: 8c99 c8bd c795 16bc 886b 603d 4b5a 2d3d
00000050: c36f 203e efe7 0c3d 1dc3 75bd ff60 083e
00000060: 8582 0a3d 1dbf 89bd 3677 f6bd ed24 443e
00000070: c2ab 813d c6de 153c 0e4f 543d b242 373d
00000080: ed15 97bc 2209 31be 4cf3 a0bc fcaa cd3d
00000090: e314 863c b483 563e 2812 e73c ff71 d33c
000000a0: 98b5 123e 509b 5ebd 6a12 2ebe a828 a13c
000000b0: bf24 133c 2f64 553d adc3 353d 17c3 3dbd
000000c0: 492e 38bd bdb0 73bd 0960 9a3d b955 273c
000000d0: b8b3 80bd 8be9 5abc 7b5d 083d a46b d3bd
000000e0: 9ea6 5c3d 234e 453c 822c 94bb 9ac2 3fbd
000000f0: 1efc b9bd aaea d9bd 2795 ba3c 0ff2 463e
00000100: fb9a 413c 12f1 ca3d d4ea 773e 8e4f e9bd
00000110: fe46 b23c 1ba6 4fbd a1eb 1fbd 63a5 853d
00000120: 5e6f ac3c 27fc 9a3d 9c99 29be 71a3 6f3d
00000130: 0b1f c4bd 47e3 f6bc d6ed b6bd 91d6 0abe
00000140: 40a1 cc3c 9eb6 23bc 34c4 083d 8124 a13d
00000150: c3cc 11bd b40d 9c3d 6cb7 d33d aed3 2e3e
00000160: beea a5bc 006d 81bb f7e3 3c3d 7500 79bd
00000170: b8d9 5dbe 7746 8cbd b858 fd3c dc0c 9d3c
00000180: 938d f5bd 8f11 cd3c a454 563c b1cc 743d
00000190: 821b d0bd be37 833d 1c54 dd3d 3d61 02bd
000001a0: e3bb 29bd 46a0 143d 5e21 3a3d 60e6 203e
000001b0: 3a1b 88bc 08b5 2d3d b97a ddbd 489f 103a
000001c0: ab7a 983b c6e7 213d 7e70 a13c f3a1 6dbd
000001d0: 5129 6d3c 908f 4e3d ba05 333c 6d94 583d
000001e0: c1e4 c53d 6718 823e f40a 41be ac72 9b3d
000001f0: 38ea 56bd 5d23 053e c2ae b4bd 68ef be3d
00000200: 81fb 2a3d a724 163d ec00 9a3d 3194 7f3c
00000210: c53c cabd 077f 5d3d 5fab 12be 5b23 e1bc
00000220: 7c57 d63d ac03 13bd 746a 65bc a2fb d7bc
00000230: eabd 6b3d 6143 063e 1416 02be a7e8 f03d
00000240: ecea f3bd 84b5 20bd 98e3 fb3b b081 e3bc
00000250: 2aa0 713d 190a 65bd c59a 763c 9ddb 87bc
00000260: 8537 2a3d c1ef 723e e72e d83d 8607 733e
00000270: 882c 25bc 2e8e a13c f86e a33d d781 91bd
00000280: fec1 fe3a c5ea 543e f913 8cbd a29c 8cbd
00000290: 2d38 a5bd a457 ac3d cd5a 013e 779d bc3d
000002a0: 3791 a53d e5ad 9c3c 3f0d 9abd 8988 213e
000002b0: 4027 0c3c 4fdd dd3c 1e9d 1cbd f2d0 363d
000002c0: 66c4 6dbc d5c9 d73a d53d 803d 5ed7 e23d
000002d0: a351 e53b 1649 97bd ade0 38bd 48f8 a8bd
000002e0: e00d 683d b932 79bd 1580 d93d d384 19bc
000002f0: d4ef ff3b fcfb cd3c 7dc2 023d 2b67 1b3d
00000300: b61e c53c aafb 41bc d4e2 833c a0fa 0dbd
00000310: 816f dabd 64c0 eb3d c3e5 fb3d d10b 3b3e
00000320: 19cf fabd 7f2d f83d 00c3 84bd 5e93 7bbd
00000330: 32ad 223d d645 dc3a 1ea8 343d 465c 4e3d
00000340: 7e27 ebbc f31a 76bd 0af8 f4bc aaa4 e93d
00000350: 849d dcbc cdbf 8cbd 5030 f9bc e482 aa3d
00000360: 29b1 7e3c 3ce2 bb3d a3ee 92bd 3fb1 4cbe
00000370: 2bb1 ecbc b759 45bd fe08 253c d73d 0bbd
00000380: 435e 053e ae44 413d a65e 03bc db4a 953d
00000390: 8a1e 5ebd 5d01 0b3e 67b2 083d acd7 76bd
000003a0: 49a1 0e3e be6f aabd 49a5 a33c 4b2f e23d
000003b0: 1cd9 c0bd 90db 8bbd f1c0 0a3d 7e0a 38bd
000003c0: 27e1 9f3d 6d71 353d be7a 9a3d 391f c4bd
000003d0: 16e9 fcbc fccb f8bd c965 5fbd 3b41 a93c
000003e0: b63f 0ebd 9f26 30bc 7881 823d 9750 053e
000003f0: be2e d03d c927 9d3d 9194 83bc 8409 0dbe
0.060908984 0.029473742 0.108308844 0.036144327 -0.16717286 -0.02597843 0.15150279 0.014041025
0.09566965 -0.05365062 -0.019834766 -0.032832503 -0.04625448 0.18229964 0.009985595 0.036597632
-0.09794912 -0.009190983 0.05479005 0.04232244 0.15667634 0.034400877 -0.060000528 0.13318251
0.03381588 -0.06725905 -0.120344564 0.19154711 0.06331588 0.009147352 0.051833205 0.04474134
-0.018443072 -0.1728864 -0.019647263 0.10042378 0.016367381 0.20948678 0.0282069 0.025811194
0.14327085 -0.054347336 -0.16999212 0.019672707 0.008980929 0.052097496 0.044376064 -0.04632863
-0.044966016 -0.059494723 0.075378485 0.010213309 -0.06284279 -0.013361345 0.033292275 -0.10323265
0.053869836 0.012042555 -0.0045219073 -0.046816446 -0.09081291 -0.10640462 0.0227762 0.19428276
0.011816735 0.09909262 0.24210674 -0.11392127 0.021762367 -0.05069552 -0.039043073 0.06525686
0.021049198 0.075676255 -0.16562504 0.05850548 -0.095762335 -0.030137671 -0.08932082 -0.13558413
0.024979234 -0.00999227 0.03339024 0.07868291 -0.035595667 0.07619801 0.10337719 0.17072937
-0.020253535 -0.0039497614 0.04611584 -0.06079145 -0.21665084 -0.068493776 0.030926093 0.01917117
-0.11989894 0.025032787 0.013081703 0.05976552 -0.10161497 0.06407116 0.10807058 -0.031831015
-0.04143895 0.03628566 0.045441978 0.15712881 -0.016614545 0.042408973 -0.10814423 0.0005516899
0.004653295 0.039527677 0.01970696 -0.058015775 0.014475183 0.05042988 0.010926658 0.052875925
0.09662772 0.25409243 -0.18851835 0.07590231 -0.052469462 0.13001771 -0.08822395 0.09323007
0.04174376 0.03665605 0.07519707 0.015599296 -0.09874872 0.05407622 -0.14323185 -0.02748268
0.10465905 -0.035892174 -0.014002431 -0.026365105 0.057554163 0.1311164 -0.12703735 0.11763125
-0.11910042 -0.039235607 0.0076870434 -0.0277718 0.058990635 -0.055917833 0.015051548 -0.016584212
0.041556854 0.23724271 0.10555821 0.23733339 -0.010081418 0.019721117 0.0798015 -0.07104843
0.0019436476 0.20792682 -0.06839747 -0.06865813 -0.08067355 0.084151536 0.12632294 0.092097215
0.08084338 0.019125888 -0.07522058 0.1577474 0.00855428 0.027083067 -0.038235776 0.04463286
-0.014512157 0.0016463349 0.062617935 0.11076234 0.0069982572 -0.07386987 -0.045136143 -0.08250481
0.056653857 -0.06083939 0.10620133 -0.009370047 0.007810572 0.02514457 0.03192376 0.037940186
0.024062496 -0.011839787 0.016099371 -0.034662843 -0.10665799 0.11511305 0.12299683 0.18266226
-0.12246532 0.12118053 -0.06482506 -0.061419837 0.039715953 0.0016805481 0.04410564 0.050380968
-0.028705355 -0.060084295 -0.02990343 0.1140836 -0.026930578 -0.068725206 -0.030418545 0.08325747
0.015545168 0.0917401 -0.071744226 -0.19989489 -0.028893074 -0.048181262 0.010072945 -0.033994522
0.13024239 0.04718464 -0.008018171 0.07289668 -0.054228343 0.13574739 0.033373263 -0.060264274
0.13928713 -0.083220944 0.019976275 0.11044177 -0.0941641 -0.068289876 0.03387541 -0.04493188
0.07806616 0.044297624 0.075429425 -0.09576268 -0.030872863 -0.12148282 -0.05454043 0.020660987
-0.03472873 -0.0107513955 0.063723505 0.13019024 0.10165165 0.07673604 -0.016062053 -0.13773161

fc2.bias f4 [300]
00000000: 401d 143c c7aa 3d3b df05 e63c 7f4c 823d
00000010: 9d7a 0a3d f79e 673d 2898 12bd 1e08 d83c
00000020: 87b0 da3c d5b7 30bd cfc6 43bd 26bd 2dbd
00000030: a754 b03a bf71 febc 399c dcbc 602b 9dbb
00000040: 9076 ce3b 2edb f03c ef1c 283d 3849 febc
00000050: e7b8 983d 9d63 143d 2abb c3bc 410b 77bd
00000060: 4dde 933b 0037 a2bd 230f aabc 71e2 3b3d
00000070: d9fd 343d 83d8 a13d ebfc a33c c1e9 593d
00000080: 0976 a33b b108 053c 0f57 10bd d39c a73b
00000090: f4e3 273d 2f79 44bd 93be edbb f653 a1ba
000000a0: aedc a13d 0d45 ba3c 0f96 1dbd 39f6 823d
000000b0: 0bd1 6a3d 7b04 643c f40b a6bd fad5 e3bc
000000c0: e79d febc a42a 42bd ae65 56bb 8d01 e13c
000000d0: 146b a43b 27b8 8fbc e285 b5bc a582 b8bd
000000e0: acc5 09bd b911 2bbc 4db0 d4bd 6861 0cbd
000000f0: b945 203d 8d7e 173c 7b91 3cbc eb06 a63b
00000100: 4c58 9b3d 45a1 bc3d 6cbe 8f3d f874 f93c
00000110: 8b42 e6bc 87c1 08bd 0092 a13d dc1b 9cbd
00000120: 32e8 5ebd 6cd7 2cbd 4419 a93b 24f4 09be
00000130: 3230 fcbc 8563 793d d013 94bc 4d7d 95bd
00000140: 7b14 06be 256a 5dbd 972c bebd 4e3a 8e3d
00000150: 68b7 a43c 5869 813c 87ae 4c3d 3d1d 703c
00000160: 57c0 96bc 80b7 323d e844 23bd 0141 a1bc
00000170: f479 693d c1c0 5cbd 34df a9bc 8392 cabc
00000180: e18a 73bd 3113 9bbb bce7 96bb 19f9 dcbc
00000190: 4bdc 96bd 2df2 0bbc ea6c 8f3c 9885 d5bc
000001a0: 59de 18b9 880f 6f3c e011 d9bc 30f0 4dbd
000001b0: 5a5b 663a 4cd5 ec3c 124e a63b ba5f 11bd
000001c0: c8de 993d 8f71 b3bc 6da8 8dbb 708b 1d3c
000001d0: 5fa9 023d e9e7 753d 7b08 353d 00b8 c43c
000001e0: f836 3d3d 01f0 59bd 28f9 ba3c 9ff5 723d
000001f0: 6b70 593d 7ef8 aebc 9b31 f13c b0a1 99bc
00000200: 47b0 6dbc 3283 6a3c 72bc 433d 783a 12bd
00000210: cbb6 b6bc 1d02 4c3c e06a 623d bb40 6c3c
00000220: 2c4b 74bc 55f5 a13d 5766 293d e32f db3c
00000230: cbab 83bd 472a 19bd 7b42 6a3c 8896 4fbb
00000240: ed3e ebbc 1cca 22ba 6de9 943b 6617 c73c
00000250: 6084 94bc c2c4 f7bc cc8e 98bd 91e4 903d
00000260: 5d69 a43b 6aca 84bc c35a 8f3c ea44 ea3b
00000270: d730 e1bd 8355 1e3c c3ec 25bd 163e 413c
00000280: ac20 a43c 00cd d73d 1f31 ad3c c3f2 d63c
00000290: 6d08 41bd 34be fdbc c7a0 6bbd 4e9c a63c
000002a0: 2468 573c 0f1f 5f3d 1954 713d 2720 debc
000002b0: 3093 82bd 7052 af3c 24d7 c6bb 22ff 0c3c
000002c0: f263 0abd d594 febc a03d 02bd b938 f53c
000002d0: c732 593c bc60 9e3c 11b6 063d f2f1 bbbd
000002e0: e575 60bd c71d f4bb d962 be3c bb90 683d
000002f0: 1bfd 3e3d 5bc7 bcbc 8cc1 16bd 710e 7f3d
00000300: bc21 2d3c a978 553c edec 723b 134d 07bd
00000310: 7f57 87bd 5a08 73bd b716 7abd b62f e53d
00000320: 9a3c 7a3b d294 493b d19d b0bd 5f35 1c3d
00000330: d86f f9bb b05e c83b d684 bb3b 4215 203c
00000340: b2ad a7bd 9c31 c1bb 31c3 ab3b 25a5 79bb
00000350: 19ea 4fbd d060 6c3d ccc3 97bd 8a87 c93d
00000360: dca0 07bb 853c 55bd d5ec e1bc e3ae 913c
00000370: b17a d0bb be2b 14bc e40f a43b 432f 96bd
00000380: 88f1 45bc 4906 053d 6fb9 8f3b 28a1 7fbd
00000390: b961 7bbd 91f7 20bb 8276 b0bc 0664 8b3d
000003a0: 5c5a b03c ca36 34bc 5743 8d3d 75d4 353c
000003b0: 4261 e3bc 8d0b d73c 9002 50bc 150d dabd
000003c0: 2b7d 073c bc96 113d 8d0b 82bc 0343 aebd
000003d0: e3a4 a23d 79fc fdbc dd53 963c e73a febc
000003e0: 32e4 b63c 72d9 073d 8e2d e73b 0513 6cbb
000003f0: 715f 8e3d f419 8c3d d734 e9bc eadb 12bd
0.009040177 0.0028940903 0.028078971 0.06362247 0.03380834 0.056548085 -0.03578964 0.026371058
0.026695503 -0.043144066 -0.04779702 -0.042416714 0.0013452963 -0.031060098 -0.026929962 -0.0047964305
0.006300755 0.029401388 0.04104322 -0.031040773 0.07457142 0.03622781 -0.023892958 -0.060313467
0.0045125843 -0.07920647 -0.02075917 0.04587025 0.0441874 0.079026245 0.020018062 0.05320144
0.004988436 0.008119748 -0.035239276 0.0051151305 0.040988877 -0.047967132 -0.0072553842 -0.0012308348
0.079034194 0.022738004 -0.038473185 0.063946195 0.057328265 0.013917084 -0.08107749 -0.027811993
-0.031081153 -0.047403947 -0.0032714414 0.02746656 0.0050176475 -0.017543865 -0.022158567 -0.090092935
-0.03363578 -0.010441237 -0.10385189 -0.03427258 0.039128993 0.009246481 -0.011509295 0.0050667427
0.07585201 0.09210447 0.07018742 0.030451283 -0.028107902 -0.033387687 0.078891754 -0.07622501
-0.054420657 -0.04219763 0.0051604826 -0.13472039 -0.0307847 0.060885925 -0.018075854 -0.0729929
-0.1309375 -0.054056305 -0.092858486 0.069447145 0.020106986 0.015797302 0.04997113 0.014655408
-0.018402262 0.04363203 -0.039860636 -0.019684317 0.05700107 -0.053894762 -0.020736314 -0.024728065
-0.059458617 -0.0047325124 -0.0046052616 -0.026974248 -0.07366236 -0.008541626 0.017507989 -0.026064679
-0.0001457868 0.014591105 -0.026497781 -0.05027789 0.0008787416 0.028910302 0.0050752247 -0.035491683
0.07513195 -0.021904735 -0.0043230564 0.009615764 0.031899806 0.06003562 0.04419754 0.02401352
0.046195 -0.0532074 0.022823885 0.059316274 0.053085726 -0.021358725 0.029442599 -0.018753856
-0.01450736 0.014313506 0.047787137 -0.03570029 -0.02230396 0.012451676 0.055277705 0.01441973
-0.0149105005 0.079081215 0.041357365 0.026756233 -0.06429251 -0.037393834 0.014298077 -0.0031675417
-0.028716529 -0.0006209926 0.004544428 0.02430315 -0.018129528 -0.030245189 -0.07449111 0.070748456
0.005017443 -0.0162098 0.017499333 0.0071493285 -0.109956436 0.009663942 -0.040508997 0.011794588
0.02003511 0.105371475 0.021141587 0.026238805 -0.047127176 -0.030974485 -0.057526376 0.020338204
0.013147388 0.05447298 0.058918092 -0.02711494 -0.0637573 0.021401614 -0.006068127 0.00860575
-0.03378672 -0.031076828 -0.03179705 0.029934274 0.013256735 0.019333236 0.032888476 -0.09177007
-0.054799933 -0.007449839 0.023240494 0.05677865 0.0466281 -0.023044279 -0.036805674 0.06226963
0.010567125 0.013029256 0.0037067488 -0.033032488 -0.066084854 -0.059334137 -0.06105682 0.11190741
0.0038183094 0.003075887 -0.08623851 0.038136836 -0.0076122098 0.0061148033 0.0057226224 0.009770693
-0.081874266 -0.0058958065 0.0052417745 -0.0038092819 -0.050760362 0.057709515 -0.07410392 0.09840305
-0.0020695245 -0.05205967 -0.02757875 0.017783588 -0.006362282 -0.009043632 0.005006777 -0.07333233
-0.012081511 0.032476697 0.004386119 -0.06240955 -0.061372492 -0.0024561624 -0.021540884 0.06806187
0.021527462 -0.010999391 0.0689761 0.011098017 -0.027756337 0.026250625 -0.012695923 -0.106470264
0.008269588 0.035544142 -0.015874648 -0.08508875 0.07941606 -0.031004177 0.018350536 -0.031033946
0.022325609 0.033166356 0.007054991 -0.0036022079 0.06951798 0.06840888 -0.028467579 -0.035854258

fc3.weight f4 [4, 300]
00000000: f065 5a3e 80e6 05be 4ce3 65be 9602 b23e
00000010: 49c4 cc3e 1436 c3bd 35aa 9bbc 199f 933d
00000020: 2487 f13e 9705 c63e 4e7c bf3d 69f8 ec3d
00000030: 0107 59be cbf5 a03d 8597 76be 4596 54be
00000040: 77d7 b63d 9539 fb3e 91ce 20be b328 36be
00000050: 527d 0cbd c51b 42be 1289 e8be d709 37be
00000060: 4d39 13be 91cc d4be f478 8ebd b217 603e
00000070: 6660 13be 637d a63c de13 a9be 4be7 963e
00000080: 8b48 243d 4cb9 ac3d 2afe 163f cc1b 01bf
00000090: b7ad 41bd d35b 29bf 6bf2 093f 5d3e 76be
000000a0: 75a4 c9bd b790 c53d 6467 613d 0ab3 f7be
000000b0: 4be5 35be 31e4 bd3e ec10 46be 836e 8abe
000000c0: 1e68 343d 4f68 7f3e 92ea b4bd b7ed 68bf
000000d0: a065 d03d d307 50be 6e8a 12be 224d 333e
000000e0: cb94 ae3e 72b3 12bf f39d 0e3e 4eee f1be
000000f0: 21c0 0ebf 61c4 de3e 6f83 203f f614 8cbd
00000100: 6fe8 2c3e 75cf 953e bc5a d7be 9d72 c73e
00000110: 222c 83be 79b1 42be 049d 0b3e c1bf f8bd
00000120: f479 7cbe 60c4 363e 74a2 b6be d3f6 8b3d
00000130: 9db2 ad3e 5fc9 c7be 89ee 03bf 5168 17bf
00000140: de28 0fbd 2368 093e e6da 963d 11d9 3cbd
00000150: d526 533e 6e98 aabe 9dca 82be 2c4c 25be
00000160: 4ce7 84be 9253 ad3d 9393 b53d e8c7 ed3e
00000170: fc56 1cbf cff2 b43e 4c10 bf3e 5895 19be
00000180: e261 c9bd 9371 5f3d b58e 08bf fb05 ccbe
00000190: 54bc f6bb b387 dfbe db68 8e3c 26f3 fdbe
000001a0: 5830 89bf 675a 663d ebf0 c3be 82b8 f83d
000001b0: a94e c5be d96d 11be 9dfb 243e 7404 46bf
000001c0: b607 a9be b8db 6b3e 6379 febd 7431 143e
000001d0: 9bd0 3bbe fd1e f53e 15b7 bbbb 377a 193e
000001e0: 4722 63bf 91ae 0c3d 7359 333e 1afa c33e
000001f0: 777f 26bf c1c6 13bf 1acd fcbe bf1a e83d
00000200: 3dd8 9c3e 05db 133e 875f cbbd 96ed a93e
00000210: ab67 3bbe a35e cfbd 547b cbbe 46b2 ce3e
00000220: 2abe aabd 25b3 83be 3026 563d 684a 1b3e
00000230: af0b b43d 18b1 2bbe 28ab 4b3e 0960 2d3e
00000240: 6930 9fbe c839 bc3d 8a39 4d3e 74e6 d83e
00000250: 4f0a b23e 2237 7cbe 4c5a 993e 8553 fc3d
00000260: 1e4c 72be 607d 863e 0446 adbe aa0a babd
00000270: ab6e bcbe af43 9cbe 835b 243e ada0 a53d
00000280: 8339 45be 372d 95be fbf2 b23c 5f1d f03d
00000290: 817c 3ebe c70f 793f e60e dfbe fc19 6e3e
000002a0: edfa f6be 4e99 9bbe 3d9b 18be 8ff9 ca3e
000002b0: dab1 60be 6dcf ab3e b440 e13e 5a26 b3bd
000002c0: 4e5f 113d 6dab b7be 0aac 3cbe af04 92be
000002d0: f767 ca3d 2e15 c93e 34ee 793e ec61 9c3e
000002e0: acc5 723e ec43 653e fbda afbe 2d81 16bf
000002f0: db27 1a3e bd2a b73e 8432 9fbd c2a3 1dbe
00000300: 7e30 433f 74d1 6dbe 457c ca3e 271e 04bf
00000310: de58 36be cba2 5c3c 19e3 19bf 435d 1fbd
00000320: 4fe0 4dbe d018 15bf c46e 0dbe 53c2 a53d
00000330: 8c4a a7bd 9bc5 b8bd dcda 043e f8a5 383d
00000340: 8928 0f3c c845 643e 00f2 bcbe dd6e 083b
00000350: a154 883f 7217 1cbf 7129 533d 0250 73be
00000360: ed85 a23d 3062 003f e751 60be adee 42be
00000370: 7de7 17bf 2201 8b3d 4e20 ec3d 90df 02bf
00000380: 1ba2 9c3e 25f4 323f 6c68 2d3e a837 a23e
00000390: 06df 243e 1de2 d1bd 87ff 24be 67c1 72bf
000003a0: 569e d33d 18b7 b13d 06bd b83e b7c3 143e
000003b0: c02c 243f 9003 993d 48dd 923e 5e8c 303e
000003c0: e0b4 753c 8388 ee3e d8ea 213d 038e 873e
000003d0: 701b a8be bf49 283e 5621 143e a00b 03be
000003e0: a707 e1be a6b1 a1be dbb2 9c3d f241 e53e
000003f0: d307 5dbd 0e6f b83e cef9 463d 5cb0 7bbe
0.21327949 -0.1307621 -0.22449988 0.34767598 0.39993504 -0.09531799 -0.01900206 0.0720808
0.47173417 0.3867614 0.09349881 0.11570818 -0.21194078 0.07859381 -0.24081238 -0.20760448
0.089278154 0.4906737 -0.15703799 -0.17788963 -0.034299202 -0.18955906 -0.45417076 -0.17874847
-0.14377327 -0.41562322 -0.06956664 0.21884039 -0.14392242 0.02032346 -0.3302297 0.29473338
0.040108245 0.0843378 0.58981574 -0.5043304 -0.047284808 -0.6615574 0.53885525 -0.24047227
-0.09845821 0.09646743 0.05503024 -0.48378783 -0.1776325 0.3708816 -0.19342393 -0.2703744
0.044044606 0.24942134 -0.08833803 -0.90987724 0.101756334 -0.20315485 -0.14310619 0.17509893
0.34097895 -0.5730506 0.1392744 -0.47252125 -0.55761915 0.435092 0.6270055 -0.068399355
0.16885541 0.2925984 -0.42061412 0.3895463 -0.25619608 -0.19013013 0.13634115 -0.12145949
-0.24655896 0.17848349 -0.35670817 0.06834187 0.33925334 -0.3902082 -0.5153585 -0.5914355
-0.034951083 0.13418631 0.0736597 -0.04610545 0.20620282 -0.3331942 -0.25545207 -0.16142339
-0.25957716 0.084632054 0.08866038 0.4644158 -0.6107023 0.35341498 0.3731712 -0.14998376
-0.09833123 0.054551672 -0.53342754 -0.39848313 -0.0075297747 -0.43658218 0.017383983 -0.4959957
-1.0717878 0.05623856 -0.38269743 0.12144567 -0.38536575 -0.1420206 0.16111608 -0.77350545
-0.33013695 0.23033035 -0.124254964 0.1447199 -0.18341295 0.47875205 -0.005728612 0.14988028
-0.8872418 0.034346167 0.17514591 0.3827675 -0.65038246 -0.5772515 -0.4937523 0.113332264
0.30633727 0.14439018 -0.0993033 0.33189076 -0.18301265 -0.101254724 -0.3974253 0.40370387
-0.08337052 -0.25722614 0.052282512 0.15165102 0.08791291 -0.16766775 0.1988951 0.16931166
-0.31091622 0.091907084 0.2004148 0.42363322 0.3477349 -0.24630406 0.29951704 0.123206176
-0.23661849 0.2626753 -0.3384248 -0.09084065 -0.36803183 -0.30520388 0.16050534 0.08087287
-0.1926022 -0.2913606 0.021844378 0.11724352 -0.18602182 0.972897 -0.43566054 0.232521
-0.48238316 -0.303904 -0.14902969 0.39643523 -0.21942845 0.3355669 0.43994677 -0.08747549
0.03549128 -0.35872975 -0.18425003 -0.28519198 0.09883111 0.3927397 0.24407274 0.30543458
0.23708218 0.22389191 -0.34346756 -0.58790857 0.15054266 0.35774794 -0.07773307 -0.153945
0.7624587 -0.23224431 0.39547935 -0.5160851 -0.17807338 0.013466547 -0.6011215 -0.0389073
-0.20105098 -0.58240986 -0.13811785 0.08093705 -0.081685156 -0.09022065 0.12974113 0.045080155
0.008737692 0.22292244 -0.3690338 0.0020818033 1.0650827 -0.60973275 0.051553193 -0.2376099
0.079357006 0.5014982 -0.21906243 -0.1903636 -0.593376 0.067873254 0.11529599 -0.5112238
0.30592427 0.69903785 0.16934365 0.31683087 0.16100702 -0.10248206 -0.16113101 -0.9482636
0.103329346 0.086775005 0.36081713 0.14527784 0.64130783 0.074713826 0.2868445 0.17241046
0.014996737 0.46588525 0.039530605 0.26475534 -0.32833433 0.16434382 0.14465842 -0.12797403
-0.4395115 -0.31580848 0.076513015 0.44776875 -0.05396254 0.36022228 0.048578076 -0.24578995

fc3.bias f4 [4]
00000000: 94ab eb3c 2275 323c d949 853d 9345 463d
0.028768338 0.010892184 0.06508226 0.048406195
