Project1_Navigation/TrainedWeightsBackup/weights_trained.pth (torch_old, 28393 bytes, 6 tensors)

fc1.weight f4 [64, 37]
00000000: d5b7 33be ee62 9d3d e91c 53be baae f03d
00000010: 4df6 bdbc 2c05 2c3b 9efc 233e 329d 0bbe
00000020: b566 41bd 711b e7bc 44db 203e 8956 5ebe
00000030: 2289 62be ea0f 87be d44b 25be 163e c0be
00000040: df3a 673b 5855 663e ee65 843e 965d 1a3e
00000050: 4901 ab3d a672 893d 1300 813d 8a65 983d
00000060: 3362 9cbe 3f50 ab3d cf05 b6bc d160 7cbd
00000070: 3529 31be c5cf 35be d19e 40be 62b1 623e
00000080: 937a af3c 42e1 25be 5eb5 a1bd 3600 5cbd
00000090: 9c36 37bd 2e77 0f3e cc31 823d 13ce ab3c
000000a0: 107f ec3d e03a a9bd 7d32 803d 641a 20be
000000b0: fd4d 93bd 2a7d ffbd 584f 35be bd92 e4ba
000000c0: 748d fa3d 03a1 80bd bd95 1e3e 24ba cd3e
000000d0: 0fea ca3d 1da2 d7bc 403a 803b af9d 9e3c
000000e0: 3e5a dc3c ea1f 71be a363 3c3d 5dde 55bd
000000f0: 1ccc 90bd e48e 4e3d 58f4 eb3d f63a 1abd
00000100: 8c32 33be d853 e4bd 164b 76be 866c 3bbc
00000110: 4226 963d 3e3a 623e ec43 a8bc 3995 18bd
00000120: 06af 73bd 9aef 823c f3d4 87bd 9204 473e
00000130: edaa 7d3d e846 1d3e 69d2 513d 8fc1 e5bd
00000140: 9f32 9b3c 23b1 463e d4c1 4e3b 11f5 b3bd
00000150: c4a1 1ebd d325 953d aa89 683d 571c 39be
00000160: cceb abbe 1f52 75bd 659e b23d 232d 333d
00000170: 0c3b 0e3e d814 cb3d f051 d5bd b9ea cabd
00000180: 6358 893d a6be b63d 56a7 9a3e 4f52 d7bd
00000190: a677 afbd 4479 5d3e 2403 3f3d b39b fe3d
000001a0: 3eb4 41be 0a61 db3c 4fad 2a3d 1acd 4cbe
000001b0: 6fbb 283e e100 5dbc 9d60 d6bc dcd3 063b
000001c0: 9541 af3d 4f84 df3d 90e6 df3d ed81 8abc
000001d0: 2205 b23d f6c5 d8be f1e3 093e 8d49 c1be
000001e0: eb98 8cbf ccb3 1e3d 3c16 123d 0488 50bd
000001f0: f457 45bd 1094 843d dd10 cfbd 98c3 bf3c
00000200: f70b 1bbd d7f5 3ebe 8918 43be 27ab 923d
00000210: a3ac 023d 19b3 883c 3dd9 8d3d 555e afbd
00000220: 5195 183e 477b 45be 62b2 ec3d fde5 eabe
00000230: ba3f 97bf 5fc9 7d3e a242 363e c6d2 923d
00000240: d709 09bf a80e 1abf 3574 b2bc 5260 8aba
00000250: 2e68 093d 3fdc 5bbe cfda c3be dbbd 14be
00000260: 3c5f d3be a306 7f3d 77a1 1f3e f55c cebd
00000270: 35c5 c4be 210b d5be 1ef0 cf3d 597f 24be
00000280: 78ad cfbe df26 3dbd 3def 23be b044 07be
00000290: 1337 3d3d f688 90be 3dc2 363d 0f53 a03c
000002a0: c1a7 babd 8a63 e63d b1a6 41be 1ea7 0abe
000002b0: a1ac a53e 8baa 09bd 0991 d8bc 106d d83c
000002c0: 1595 acbd 1d01 bdbd 6d3a 153e 0781 96be
000002d0: 40ec edbd 56ce fc3d c947 8e3e 6734 8e3d
000002e0: ad03 093c 3e92 05bd e2a0 45be c1c6 8b3c
000002f0: e422 973d 65c3 ae3d a0b5 a73d ecd9 fe3d
00000300: 717d d1bb be95 2abd 51cd 0cbf 6405 3cbe
00000310: df2b b1bc f472 96bd 7809 91bd 9f4e c63c
00000320: 9781 b33d d9cd a53c 5ee2 37be bfd7 2bbe
00000330: 2fbc 32bd a11d 203d 6b27 a7bc cbc3 bf3d
00000340: 3563 da3d f04c 8c3d 21af 99be 02c6 4ebc
00000350: 9d00 223e c060 453e 685d 5d3e 1eb0 3ebd
00000360: 3435 15be afc1 36bd 427f fe3d a41e bdbe
00000370: 264e 08be 94f3 513d 49be f2bd 289e b03d
00000380: 0e42 513d b9cc 333c c71b cdbc 62fe eebd
00000390: ecb8 debd c4f7 ebbc 076a 2a3e efb5 183e
000003a0: dfa1 60be 5763 943e 7220 ba3d 8b6f e53d
000003b0: 9d43 883e 6061 a5be 545c 803d 534d 45bc
000003c0: 4b09 1f3e ff46 3e3d 369c 59be 1936 0b3e
000003d0: 54eb 2c3d 0d15 a6bc 3f87 863d 5a6e 61be
000003e0: bd28 8ebc f5e5 a43d 615b 00bd 28cb b83d
000003f0: fc9a a3be 640f 8c3c b1c0 f43c 8cee 573e
-0.17550595 0.07684885 -0.20616497 0.117520764 -0.023188734 0.00262482 0.16014335 -0.13634184
-0.04721709 -0.028211327 0.15708643 -0.21712698 -0.22122625 -0.2637933 -0.16142207 -0.37547368
0.0035282893 0.22493494 0.25859016 0.15074763 0.083498545 0.067113206 0.06298842 0.07441242
-0.3054367 0.08364915 -0.022219567 -0.06161577 -0.17300875 -0.17755039 -0.18810584 0.22137979
0.021420753 -0.1619921 -0.07895921 -0.05371114 -0.044729814 0.14010307 0.06357154 0.020972287
0.11547673 -0.08263183 0.0625963 -0.15635067 -0.071926095 -0.12475045 -0.17706048 -0.0017438751
0.12234011 -0.062807105 0.15486808 0.40181077 0.099079244 -0.026322419 0.003913194 0.019362299
0.0268985 -0.2354733 0.04599346 -0.052214015 -0.07070181 0.05042924 0.11521214 -0.037653886
-0.17499751 -0.111488044 -0.2405208 -0.011439448 0.07331516 0.2209253 -0.0205402 -0.037251685
-0.059493087 0.015983392 -0.06632414 0.19435337 0.061930586 0.1535908 0.051226053 -0.11218559
0.018945036 0.1940351 0.0031548636 -0.08786977 -0.03872849 0.07282605 0.05677191 -0.18077217
-0.33578336 -0.05989277 0.087216176 0.043744218 0.13889712 0.09916085 -0.10416019 -0.09908051
0.067063116 0.08923082 0.30205792 -0.10513746 -0.08567743 0.2162829 0.046633855 0.12432041
-0.18916413 0.02677967 0.041669186 -0.20000115 0.1647775 -0.013488979 -0.026169116 0.0020573055
0.08557431 0.10913908 0.10932648 -0.016907657 0.08692385 -0.42338532 0.13465859 -0.37751427
-1.0984167 0.038745686 0.035665736 -0.050910965 -0.04817958 0.06473553 -0.10110638 0.023408696
-0.037853207 -0.18648468 -0.19052328 0.07161551 0.03190292 0.016686963 0.069262005 -0.08562914
0.1490071 -0.19285308 0.11557461 -0.45878592 -1.1816323 0.24783848 0.17798856 0.07169108
-0.5353064 -0.60178614 -0.021783927 -0.001055727 0.03354662 -0.21470736 -0.38252875 -0.14525549
-0.41283596 0.06226219 0.15588938 -0.10076324 -0.38431707 -0.41610053 0.101532206 -0.16064204
-0.40562034 -0.04617965 -0.16009231 -0.13209796 0.0461951 -0.28229493 0.044618834 0.019570855
-0.09114028 0.11249454 -0.18911244 -0.13540313 0.32358268 -0.033609908 -0.026436346 0.026419193
-0.08426873 -0.09228728 0.14573069 -0.29395315 -0.11617327 0.12344043 0.27789143 0.06943589
0.008362693 -0.03261017 -0.19299653 0.017062547 0.07379702 0.08533362 0.08188939 0.12443909
-0.0063931276 -0.04164671 -0.5500079 -0.18361431 -0.021627365 -0.07346144 -0.07081884 0.024207411
0.08764952 0.020239757 -0.17957446 -0.1678152 -0.043636497 0.039090756 -0.020404538 0.093635164
0.106634535 0.06850612 -0.30016425 -0.012620451 0.15820546 0.19275188 0.21617663 -0.046554677
-0.14571077 -0.044618305 0.12426616 -0.3693744 -0.13311061 0.051257685 -0.118527 0.08623916
0.051088385 0.010974103 -0.02503766 -0.116696134 -0.10875115 -0.028804667 0.16642009 0.14913152
-0.21936749 0.2898204 0.0908822 0.11202916 0.26614085 -0.32300854 0.0626761 -0.012042361
0.15530889 0.046454426 -0.21250996 0.13594855 0.042216614 -0.02027371 0.06568765 -0.22014752
-0.01735341 0.08051673 -0.031337146 0.09023124 -0.3195418 0.017097183 0.029877039 0.21087092

fc1.bias f4 [64]
00000000: 4b3e 063e 1a44 a9bc a03e 25be d1ff 8abc
00000010: 6f01 df3d 7df3 d7bd be9a 63bd fe27 763d
00000020: 92cc 253d 2918 49be ac25 003e 8e88 433e
00000030: 6fea 443e bb91 223e ae88 c4bc 578f 11be
00000040: 1edc 043d 9d17 a73d 24fb fbbc 0924 3ebe
00000050: cf01 19be cbd5 663c 22dc 5dbb 5fc3 aabd
00000060: 4a1c 09be 8ab7 bf3d ec78 bb3c 5385 6abe
00000070: 1004 b63d 3562 b13d abb4 bcbd 09d5 2ebe
00000080: 7a31 423e 4608 b3bd 231a 0ebe 3e73 bc3d
00000090: 9180 2abe bf8f 6c3d 7e2a 5f3c a2d3 dbbd
000000a0: 888f c537 00c9 cabc 1a7d 40bd b294 f83d
000000b0: 7f52 ad3d 39dd c2bd 972e 4abc 6e6d 26be
000000c0: 82eb 11be f82a e73d d1f5 94bd 78ba 383d
000000d0: d6e0 3abd a81d fbbc 603d 77be 0c9c bdb9
000000e0: f5cb 8b3d 07ad 05bd abb7 16be 6856 21be
000000f0: b507 073d ad27 013e 6733 173e 0f3b 2bbc
0.131097 -0.020662356 -0.16137171 -0.016967686 0.10888945 -0.105444886 -0.055567496 0.060096733
0.040478297 -0.19638123 0.1251437 0.1909506 0.19230054 0.15875904 -0.023990955 -0.14214836
0.032436483 0.08158801 -0.030759402 -0.18568434 -0.14942096 0.014089058 -0.0033853133 -0.08338045
-0.13389698 0.09361179 0.022884808 -0.22902422 0.088874936 0.0866131 -0.09214147 -0.17073454
0.18964186 -0.087418124 -0.13877158 0.09201668 -0.16650607 0.057754274 0.013620971 -0.10733725
2.3551067e-05 -0.024754047 -0.046994306 0.121377364 0.084630005 -0.09514851 -0.012340209 -0.16252682
-0.14249995 0.112874925 -0.07273448 0.045099705 -0.045624577 -0.03065379 -0.24144506 -0.00036165153
0.06826011 -0.032635715 -0.14718501 -0.15755618 0.032966334 0.12612791 0.14765702 -0.010451092

fc2.weight f4 [64, 64]
00000000: cc51 10bd c3fb 9fba e322 143d 1ee4 1b3d
00000010: 92c8 013e d722 d7bd 1b0f 88bd 902e ddbd
00000020: 6c12 abbd 72cd e73d c6a2 883e 9482 4bbd
00000030: 3223 d5bd 52ee c73d 123e 1cbe 2c95 7fbe
00000040: 2e40 b9bd ca5c 1bbf a153 8f3e e0d0 36be
00000050: d33b 2ebe ac74 3a3d b287 973d 01e0 31bc
00000060: 3b3e 6c3e b9a2 b2bc 81f3 0e3e adc0 80bd
00000070: 2712 8abe ae9d 8a3e 8e8c 603e 53b3 0fbe
00000080: 828c 7d3d 9e11 fb3d 7343 303e 397e 5c3d
00000090: adfa e9bd b44c a1b9 b6ef b93d 63b4 33be
000000a0: 21df febe 1c64 843b e785 d13e e51c ce3d
000000b0: 65d8 cb3d 8a58 61bd 4ad8 bcbc 73ac e53e
000000c0: 80cb 293e ba74 6a3e 6ef9 e9bd 33c5 843c
000000d0: 9bf5 32bd 724c 373e 0cbd 1c3e 36e3 d6bd
000000e0: 4f3c c4bd 2813 17bd 6f17 87be 27d6 20bc
000000f0: 424b 913d 6178 313e 3045 70bd e875 c73d
00000100: 91c8 993d 7517 e83c 5f1e 3cbe 8ac4 8abd
00000110: a33f 83bd a874 67bc 0eb6 cfbd ff2a 8b3d
00000120: a8a7 fabd 44d9 563e 739a 2ebe c326 843e
00000130: 7d7a 87bd ef25 ba3b 27c4 82bd 9df0 813d
00000140: 6a64 653d a255 2bbe d821 6abe b392 e03c
00000150: 8296 26bd af88 f83c 0e75 c5bb c85b 6dbd
00000160: ba81 3cbf 6e4a 80be a30d 60be 4b5f fabd
00000170: decc 1f3c 23cf b93e 7135 dd3d 95cd aebc
00000180: a295 683d 0e9e e73d f29b 69bb 1bbe a1bd
00000190: 8a0c 6f3e a66f 283d ae26 23be 6b27 b3be
000001a0: 07fe 68be 9366 d03d b160 3c3b 808c 7ebd
000001b0: d2d4 bbbd 9e09 85bd 26b2 34bd 8c93 babd
000001c0: cea4 69be a11b a3be d5a2 c0bd b211 393e
000001d0: 2d23 12bd 0ab6 d53e 6cef 60bc 7df9 2d3e
000001e0: fd7d c4bd c43d f0bd fba0 64bd 2b6f 373d
000001f0: 5bf4 9cbc 37ec 6cba 965a 8a3d 0bf2 63be
00000200: faba 463e 63e5 8bbe c2b9 f93b 87b9 94be
00000210: fff7 c7be 8f70 a03e 7cf8 08be 043d 453d
00000220: 4f54 fa3c e4b0 0bbe 74d1 f6bc e665 17be
00000230: 73f9 c0bc e13b 1d3c abe4 e9bc 6047 ca3d
00000240: 8412 b9bd 8cab f2bc 9e6c cebd c29d 15be
00000250: 0ceb 8dbe 1891 b73c 75d3 5cbe 5558 7cbd
00000260: 1259 5bbe af23 243e 6a02 17be 73f4 0fbe
00000270: 6410 13be fc6d cabe 4f3a ab3d dca1 06bd
00000280: 4c1b eebe 4ee9 fd3c 0438 ac3d 54d3 ba3d
00000290: 284e 073e c41f e4bc 03f4 ee3e 1cac 8dbe
000002a0: 7733 c23d 9dc8 18bd 4438 6e3d fc39 53be
000002b0: f22d 00bd 2ea2 28be 6fd4 8e3d fb59 a5be
000002c0: f342 6dbe 8341 dbbe fc88 94be 66ea ff3c
000002d0: b5a9 29bf 9ce7 463a 199c 213d 9e30 d13b
000002e0: 8761 98be 4b7d 6abe a42e cd3d c35e 2d3e
000002f0: e129 12bd 8d91 903c 568f 7e3e 0761 3fbe
00000300: 79d9 ca3b dba6 adbe c315 d03d 75e4 cbbe
00000310: 8b13 213d ba41 e2bd 1aa7 b1be aeba e7bb
00000320: d2de 8abe 62b1 60be 069d c6be 5d0a f9bd
00000330: ca6f 62be 759a e03d 99b3 8a3d 8235 f2bd
00000340: 7394 91be 1336 33be ecc4 c2be fd90 43be
00000350: 1402 be3c c309 a9bd 59ff 88be cbae 283e
00000360: 2ce9 98be ceb5 433d 767f bd3c 49a4 84bd
00000370: 529c f13d bed8 abbe b995 96bd 97af fd3d
00000380: 19e8 373d 0788 02bd 918f 923e 8aea 6d3d
00000390: ea41 29be 7998 bebe ef55 3a3f 9c4b 723b
000003a0: 46cc 73be 56a7 37be 5417 0d3d ec88 a5be
000003b0: 8324 9c3d c181 66bc 20b4 96bd 1fa7 31bf
000003c0: 9053 9fbd cc86 873d d58d afbe b99f 5ebd
000003d0: 4ff4 7a3d a817 e3be a369 4e3c 9f67 d23d
000003e0: 366d 46bd 8d1c 01be b926 efbe df77 433e
000003f0: 3012 6bbe 7f6d 693e 0d3e c7be 332c 07be
-0.035234258 -0.0012205768 0.036166083 0.038059346 0.12674168 -0.10504692 -0.06643506 -0.10799897
-0.08353123 0.113184825 0.26686686 -0.049685076 -0.104071036 0.09762253 -0.15258053 -0.24959248
-0.090454444 -0.6068846 0.2799349 -0.17853117 -0.17015009 0.045521423 0.07398929 -0.010856629
0.23070614 -0.021806108 0.13960077 -0.0628675 -0.26966974 0.27073425 0.21928617 -0.1403325
0.061901577 0.122592196 0.1721323 0.053831313 -0.11424766 -0.0003076546 0.09078924 -0.17549281
-0.4977961 0.0040402543 0.40922472 0.10064105 0.09953383 -0.055016078 -0.023052353 0.4485813
0.16581535 0.2289609 -0.11424528 0.016207313 -0.04369126 0.17900255 0.1530649 -0.10492556
-0.095818155 -0.036883503 -0.26385066 -0.009816683 0.070944324 0.17331077 -0.058659732 0.09739286
0.07508958 0.028331498 -0.1837096 -0.06775768 -0.06408622 -0.014126934 -0.10142146 0.0679531
-0.12239009 0.20981318 -0.17051105 0.25810823 -0.0661516 0.0056807916 -0.06385069 0.063447215
0.056003965 -0.16731885 -0.22864473 0.027413702 -0.04067088 0.030338613 -0.006025917 -0.057948858
-0.7363545 -0.25056785 -0.21880202 -0.12225207 0.009753434 0.36290845 0.10801209 -0.021338264
0.056783326 0.113094434 -0.003564593 -0.07897588 0.23344627 0.0411221 -0.15932724 -0.3499101
-0.22753154 0.101758145 0.0028744156 -0.06214571 -0.09171452 -0.06495975 -0.044115208 -0.091101736
-0.22816774 -0.31857017 -0.09406058 0.18073156 -0.035678077 0.41740447 -0.013728958 0.16989703
-0.09594343 -0.11730531 -0.055817585 0.044783752 -0.019159487 -0.00090378843 0.06755559 -0.22260301
0.19407263 -0.27323446 0.007621021 -0.29047796 -0.39056394 0.31335875 -0.1337604 0.048153892
0.03055778 -0.13641697 -0.030129172 -0.14784965 -0.023556447 0.009596796 -0.02855142 0.09876895
-0.09036735 -0.029622816 -0.10079311 -0.14610961 -0.2771839 0.022408053 -0.2156504 -0.061607677
-0.21420696 0.16029237 -0.14747015 -0.14058094 -0.14361721 -0.39537036 0.08360731 -0.032869205
-0.465052 0.030995037 0.08409122 0.09122339 0.13213408 -0.027847178 0.4667054 -0.27670372
0.094824724 -0.037300695 0.058159128 -0.20627588 -0.031293817 -0.16468117 0.06974112 -0.32295212
-0.2317007 -0.4282342 -0.2901076 0.0312397 -0.6627458 0.0007587613 0.039455507 0.0063839694
-0.29761907 -0.22899358 0.100186616 0.1693068 -0.03568447 0.017647529 0.24859366 -0.18689357
0.0061904755 -0.33916363 0.10160401 -0.39822736 0.03932528 -0.110476926 -0.346978 -0.0070718145
-0.27123123 -0.21942666 -0.38791674 -0.1216018 -0.22112957 0.1096696 0.06772537 -0.11826612
-0.2843357 -0.17501096 -0.38040864 -0.19098277 0.02319435 -0.08253815 -0.26757315 0.16472928
-0.29865396 0.047780804 0.023132067 -0.064766474 0.11797394 -0.335638 -0.07352776 0.12387007
0.04489908 -0.031868007 0.28625157 0.058085002 -0.1652905 -0.37225702 0.72787374 0.0036971336
-0.23808393 -0.17934927 0.034446076 -0.32331026 0.076241516 -0.014069022 -0.07358575 -0.6939563
-0.0777961 0.06617507 -0.34287897 -0.054351542 0.061268147 -0.44353986 0.012598428 0.102736704
-0.048443995 -0.12608548 -0.4670923 0.19088696 -0.22956157 0.22795676 -0.38914528 -0.13200454

fc2.bias f4 [64]
00000000: a56f 833d 1550 4d3d 35a7 883d 863e 7e3b
00000010: bd9b cd3e 0fff 01be 1a05 fd3a acb8 ed3d
00000020: c92d 943e c045 e63e 08d4 2dbd f055 2c3e
00000030: 2733 a03d bba1 0ebe 84d9 6dbd bbd1 cb3c
00000040: 45f2 d03d 42d3 e7bd a3db a6bd e947 cb3e
00000050: d3c0 5f3e c19a 043f 0fb6 58be 619f 8ebd
00000060: ffc7 3dbe 7cb8 10be d256 96bc 8b22 92bd
00000070: e330 b73d d005 933d 75a0 7e3d 38b0 34bc
00000080: 9aa2 bdbd 6c34 0b3e 4ba3 8c3e 2f4a c6bd
00000090: 99c2 86bd 23fc e7bd fa2d b2bc 2216 fd3d
000000a0: a414 1fbe da2b f83e d130 c53e c077 c0bd
000000b0: d5f9 e93c c97e f6bc 3e80 9c3e fb77 563d
000000c0: 791a 50bc 22bb 6dbe 6126 6dbb 7f8c e73e
000000d0: 67f5 c9bc dbb2 11be e1c8 ee3d 0ffc 2abe
000000e0: 4683 46bd 1a04 3abe 261b 9a3d 6f26 863d
000000f0: aa1b 313d c816 c83e 7c78 c13d 9631 ecbd
0.06417779 0.0501252 0.06672517 0.003879459 0.4015788 -0.12694953 0.0019303889 0.11607489
0.2894118 0.4497509 -0.042438537 0.16829658 0.078222565 -0.13928883 -0.058068767 0.02488028
0.10202459 -0.11319591 -0.08147361 0.397033 0.218509 0.51798636 -0.211632 -0.06963993
-0.18533324 -0.14132875 -0.018351946 -0.07135495 0.08944871 0.07178843 0.062164742 -0.011028342
-0.092595294 0.13594216 0.27468333 -0.09682118 -0.06580085 -0.11327388 -0.021750439 0.12357737
-0.15535218 0.48470956 0.38513806 -0.093978405 0.028561512 -0.030089753 0.3056659 0.052360516
-0.012701624 -0.23215917 -0.0036186206 0.45224378 -0.02465315 -0.14228384 0.11659408 -0.16697715
-0.048465036 -0.18165627 0.075247094 0.065502994 0.043239273 0.3907988 0.09446809 -0.11532895

fc3.weight f4 [4, 64]
00000000: a2d6 293e 71a3 503e 104b e03e 5da5 ac3e
00000010: a86c 203e 1d8b f43e 19a3 953e 5bbf 9ebe
00000020: bb81 e93d 315e 0b3e cbaf 0bbd 702e 833e
00000030: 8b59 363e cbe7 59bd 822d 46bc 2a3f efbe
00000040: 0c83 243e 0e0b 2fbd c2f0 b4bc d3f4 5b3e
00000050: 1d43 7f3d ed1e 193e 2c3b 03be 544d 0f3d
00000060: 0d02 a3be a480 33be 4f49 1dbe 6b86 ca3d
00000070: 6991 da3e 91ab 7a3e c4bc 9cbe 6bd7 aa3d
00000080: eca8 4b3e 875e 9a3e 19bc c93d f188 2fb9
00000090: 9118 473d 6210 a4bd bd36 bbbd 7f4f 113e
000000a0: a91b 3a3e 0fc4 113e 3539 363e ef42 64be
000000b0: e9b4 d53e 972d 7bbc 94a1 433e 3775 583e
000000c0: 111b 51be 9b4f 23be 15a4 983d cb96 1c3e
000000d0: 6479 f43d e6e8 4bbe 5a58 2d3b c017 57be
000000e0: 27d1 8cbe 6399 cf3d 2a18 853e dc0d 9f3d
000000f0: c447 4fbe 467c 633e df61 203e 22fb 693d
00000100: dbb1 6a3e 0bcf 7e3e 3546 1b3f cd94 093f
00000110: cd76 143e b50c b63e c641 6f3e 56af a43d
00000120: 80f7 c73d b91e 303e c4ee d2bd 246d 213e
00000130: 5751 573e b6a8 103d b9fe 11be b890 94be
00000140: cf8f 643d f7c6 c83e 2930 27bf df99 1f3e
00000150: 3e55 383d 0002 623e af0c 1bbe 9fd4 0d3d
00000160: 49f8 1dbc ac1e 77be 3172 ccbd 0f3c d0be
00000170: c8a2 c93e 25be be3e ca9a b73d e380 223e
00000180: 8a41 05bd 74cc 733e dcc3 3d3e 3714 33bd
00000190: 2104 ef3d 1ade e33c a604 933e 4a49 0b3e
000001a0: 1e02 8f3d 8003 2d3e c952 b53d 1bff c93c
000001b0: 0cda 083f 9f38 94bd 98ce 253e f148 483e
000001c0: 02a2 41be 7fbf 0dbe 0760 c43d 143a 7d3d
000001d0: 6c0f 493e 1b9d 21be 4c89 013d 1d0b 28be
000001e0: a6a0 d7bd 01b5 ce3c 344e bf3e 2750 373d
000001f0: 2301 15be d50f 0a3e b396 133f 3607 c53c
00000200: 8220 573e 027b 823e 0995 f13e 7535 803f
00000210: f5f6 483e 4c6f 333f 3f8d a93e a580 ac3d
00000220: 56cc 163d a551 013e 375e 53be edae f93e
00000230: cd95 a43e b07c cabe 670c e3bd efc4 1cbd
00000240: c715 9b3e 8add 573e 06cd b83d 1255 d13d
00000250: 1632 f93d a3e9 653e 3be2 a9be 3afe b43e
00000260: 8ab5 9b3d 54b9 21be a47d 81be a69e 40be
00000270: b3ff b03e b6df 033f c0f2 c83e 6b52 40bd
00000280: 27fe 3dbe b303 fbbd eaca 3d3e 8d4f ce3d
00000290: 151e 3fbe 3b98 b1be 854e ccbe 57b8 343e
000002a0: 2a9d b4be a7a8 2e3e 65ef f53d ca7d 0fbe
000002b0: 1474 8c3e 89f5 9bbd a345 0d3e d48f 163e
000002c0: 576c 843c bf48 babe 2db9 bc3d bd05 843e
000002d0: 8569 20be a952 4c3c e3cd 193e cae4 ccbd
000002e0: 39e9 97be ffa0 c4bd d10a 373e 2f9b 133d
000002f0: 6378 1ebf 3222 053e a38b 47be a6d6 ebbe
00000300: a123 653e d5bb a33e db38 21be bc8c 3fbe
00000310: 8f2d b43d 2986 233e 2b66 6f3d edcc b9bc
00000320: f4ef 9b3d ebe0 583e 91d8 043e 3c09 8c3d
00000330: 1240 b93e 6d9f a33d 3a0d bc3d 45e2 e8bd
00000340: e69e b03d 36c4 c93e c29d bfbd c8e6 343e
00000350: e0df 833d eb9a 863e 8e61 8cbe ab19 7f3c
00000360: 61ea debc eef1 cebe 85b7 66be 10e9 5b3e
00000370: 2ac8 863e 62c3 1d3e 5888 cabe 9a8a 253e
00000380: 1127 e9bd 8027 82bd 25e0 c43c 0380 7e3c
00000390: 62ca 113c f243 783e 2a1a 0e3e a075 a93e
000003a0: a454 13bf 3642 543e b1a0 1a3e e3d3 8ebe
000003b0: c657 523f 8de6 8bbe 57e6 033e a318 233e
000003c0: b700 bdbd 0398 f93c 7c3d 833e 3c5a 053e
000003d0: 433e ff3e 8313 34be 8894 d43d d3dd 2dbe
000003e0: 92ab a8be 1cc0 76be 7a5e d93e b065 47bd
000003f0: 2386 54be 40ed 143e 6415 143f 6f83 87bc
0.16585782 0.20374848 0.43807268 0.33719912 0.15666449 0.47762385 0.29225996 -0.31005368
0.11401697 0.1361015 -0.034103196 0.25621367 0.17807595 -0.05319957 -0.012095811 -0.46727878
0.16065615 -0.042735152 -0.022087459 0.21480112 0.062319864 0.14953203 -0.12815541 0.034985855
-0.31837502 -0.17529541 -0.15359996 0.098889194 0.42689064 0.2447951 -0.30612767 0.08341869
0.19888657 0.30150244 0.0985033 -0.00016740315 0.048607413 -0.08010937 -0.091413 0.14190482
0.18174614 0.14234947 0.1779526 -0.22291158 0.41739586 -0.015330694 0.19104606 0.21138464
-0.20420481 -0.15948336 0.07453171 0.15291898 0.11937216 -0.19913062 0.0026450367 -0.21005154
-0.2750332 0.10136678 0.25994998 0.07766315 -0.2024222 0.22215375 0.15662335 0.057124265
0.22919409 0.24883668 0.60654 0.53742677 0.14498444 0.3555657 0.23364934 0.08041255
0.09764004 0.1719922 -0.10299447 0.1576429 0.21027122 0.035317145 -0.14257325 -0.29016662
0.05580121 0.39214298 -0.6530786 0.15586041 0.04500317 0.22071075 -0.15141557 0.0346266
-0.009641715 -0.24132794 -0.09982718 -0.4067082 0.39382005 0.37254444 0.089650705 0.15869479
-0.032533206 0.23808461 0.18531746 -0.04372045 0.116707094 0.027815867 0.28714484 0.13602176
0.06982826 0.16895866 0.08853681 0.024657777 0.53457713 -0.07237362 0.1619209 0.19559075
-0.18909457 -0.13842581 0.09588628 0.061822966 0.19634789 -0.15782587 0.031625077 -0.1641049
-0.10528688 0.025232794 0.37364352 0.044754174 -0.14551215 0.13482602 0.57651824 0.02405129
0.21008494 0.25484473 0.47184017 1.0016314 0.19625457 0.700917 0.33115575 0.084229745
0.036815964 0.12628801 -0.20641409 0.4876627 0.3214554 -0.39548254 -0.1108635 -0.038273748
0.30290052 0.21080604 0.0902348 0.10221304 0.12167756 0.22452407 -0.33180413 0.3535021
0.07602985 -0.15793353 -0.2529117 -0.1881052 0.34570083 0.5151323 0.39247704 -0.0469536
-0.18553983 -0.12256565 0.18534437 0.10073767 -0.18663819 -0.34686455 -0.39903656 0.17648445
-0.35276157 0.17056523 0.120085515 -0.14012828 0.2743231 -0.076151915 0.13796096 0.14703304
0.016164942 -0.36383626 0.09215007 0.25785628 -0.15665253 0.01247088 0.15019946 -0.100045756
-0.29670122 -0.0960102 0.1787522 0.036036666 -0.61902446 0.13001326 -0.19486861 -0.460622
0.22376873 0.31979242 -0.15744345 -0.1870603 0.08797752 0.15969147 0.058447044 -0.022680724
0.07614127 0.2117955 0.12973239 0.06837699 0.36181694 0.079893924 0.0918221 -0.113712825
0.086240575 0.3940751 -0.09356262 0.17666161 0.06439185 0.26290068 -0.27418178 0.015570085
-0.02721137 -0.40418953 -0.22530945 0.21475625 0.26324588 0.15406564 -0.39557147 0.16166154
-0.113844045 -0.0635519 0.024032662 0.01553345 0.0088983495 0.24244669 0.13877168 0.33097553
-0.57551026 0.20728382 0.15100361 -0.27896032 0.8216518 -0.27324334 0.12880836 0.15927367
-0.09228652 0.030467993 0.25632846 0.13022703 0.4985219 -0.17585568 0.103798926 -0.1697915
-0.32943398 -0.24096721 0.42454892 -0.04868096 -0.20754294 0.14543629 0.5784514 -0.016542165

fc3.bias f4 [4]
00000000: 0329 a03e 58c3 8f3e 618d 2f3e e303 3f3e
0.3128129 0.28078723 0.17143776 0.18653826
